models/handle_model.pt (torch, 2015 bytes, 3 tensors)

mods.0.weight f4 [32, 2]
000000 58 8e 45 40 d9 1c a1 3c 3f ca a2 3f 81 6a c2 3e
       3.086813 0.019667076 1.2717971 0.3797188
000010 07 41 a1 3f 57 2e db be c4 ee 88 be 8b 52 b6 3b
       1.259797 -0.42808792 -0.26744664 0.005564039
000020 0f ed 01 bf 58 cc f6 3d b6 1c c0 3f e8 e6 26 3f
       -0.5075235 0.12050694 1.5008762 0.65196085
000030 bb 56 4b 3f 80 c9 08 3f eb 2f a8 c0 b2 5b 65 3d
       0.79429215 0.53432465 -5.2558494 0.05599565
000040 e7 f3 13 bf 51 1c 24 bf 58 4a 7b 3e 25 b5 88 bd
       -0.5779404 -0.6410571 0.24540079 -0.066751756
000050 e9 48 e5 3e c0 28 3e 3f b8 4f 5a 40 9b 95 15 3d
       0.4478219 0.7428093 3.4111156 0.036519628
000060 a5 05 a6 c0 0f 08 b5 3d b4 4d 9e 3d cf 43 30 bf
       -5.188189 0.08839428 0.077296644 -0.6885347
000070 65 68 fa 3f 70 a3 31 3f 8d ba fe 3e 7a 7d 87 3d
       1.9563109 0.6939001 0.49751702 0.0661573
000080 1a d7 dd be ea 79 76 3e 8e 7f 3d 40 8a 8f 9f 3c
       -0.43328172 0.24069944 2.9609103 0.019477624
000090 bc 0f 46 40 c7 27 60 3c 8e 53 8a 3f 0a 3a 2f 3f
       3.0947104 0.013681359 1.0806749 0.68447936
0000a0 ac c2 92 3f 7d 45 79 be 55 35 3f 40 89 40 97 3c
       1.1465659 -0.24342914 2.9876301 0.01846339
0000b0 a2 cc a4 3f 51 57 64 3c 72 aa 4f 40 d7 65 82 3c
       1.2874949 0.0139368335 3.2447782 0.015917702
0000c0 7e d7 a4 be 8a 66 ff be af d8 3e 40 d3 55 b3 3c
       -0.32195657 -0.4988292 2.9819753 0.02189151
0000d0 80 52 43 40 e8 88 53 3d 15 fd aa c0 06 5c eb 3b
       3.0519104 0.051644236 -5.343394 0.007182601
0000e0 9f bc 93 3d 2b 1e 8e be 37 e2 04 bf fb 65 ef 3e
       0.07213711 -0.2775739 -0.51907676 0.46757492
0000f0 92 65 28 bf c9 11 a5 be 3f 81 a7 c0 73 bf 1f 3d
       -0.65779984 -0.32240131 -5.234527 0.03900094

mods.0.bias f4 [32]
000000 36 04 c5 bf 33 eb 64 3f 95 52 5d 3f 28 00 6f bc
       -1.539191 0.89421386 0.86454135 -0.01458744
000010 14 71 59 be c7 2a 9c 3f 91 df 29 3f ac 9b d1 3f
       -0.21234542 1.2200555 0.6635676 1.6375632
000020 86 0e 15 bf 72 6a 31 bf e7 ed fa be 4b 94 d8 bf
       -0.58225286 -0.6930305 -0.4900963 -1.6920255
000030 ee 82 cb 3f 79 ea a0 be 40 38 20 3f 26 c4 9e 3f
       1.5899332 -0.31428888 0.6258583 1.240361
000040 ae e8 74 be 12 bc bd bf 89 f2 c4 bf 5a 1a 8f 3f
       -0.23916885 -1.482302 -1.5386516 1.1179917
000050 00 1a 7c 3f 18 44 bf bf e2 ec 78 3f ff b9 cd bf
       0.9847717 -1.4942656 0.97236454 -1.6072387
000060 b8 2f f6 bd 01 39 bf bf 99 05 c5 bf eb 04 d9 3f
       -0.120208204 -1.4939271 -1.5392333 1.6954626
000070 74 6c e5 be 42 91 2c bf dd 62 a2 be ea fa d1 3f
       -0.44809306 -0.67409146 -0.31716052 1.6404698

mods.1.weight f4 [1, 32]
000000 42 e0 f3 c0 5c 29 4e 3f aa c4 25 3f 1b df bf 3d
       -7.621125 0.8053186 0.6475321 0.09368726
000010 4f e1 17 be 73 32 39 3f 4a 11 25 3f b1 2d 04 c1
       -0.14832042 0.72342604 0.64479506 -8.261155
000020 bd 77 60 3a 6c 0d d9 3c 2b d6 00 bf b1 81 e6 c0
       0.0008562764 0.026495658 -0.50326794 -7.2033315
000030 bc 1c 0e c1 44 dd 2d 3e 72 91 4b 3f f7 94 1c 3f
       -8.882015 0.16978937 0.79518807 0.611648
000040 c7 e8 57 3d bd 20 00 c1 95 56 fe c0 d8 03 10 3f
       0.05271223 -8.007993 -7.948069 0.56255865
000050 91 1a 73 3f 7a 67 f9 c0 ca 32 78 3f 75 5a ee c0
       0.9496241 -7.7938814 0.969525 -7.448542
000060 5e 15 24 3d 68 32 f7 c0 bb ff fd c0 85 fe 01 c1
       0.04005944 -7.724903 -7.937467 -8.124639
000070 3e e7 2a 3e 12 ba 25 be 61 af 32 bd d9 5b 03 c1
       0.16689774 -0.16184261 -0.043624286 -8.209924
