models/handle_model.pt (torch, 2015 bytes, 3 tensors)

mods.0.weight f4 [32, 2]
0	0x3f967d3e	1.1756971
1	0x3e510f8d	0.20416088
2	0xbf3350d3	-0.700452
3	0x3e28a944	0.1647082
4	0xbdd5602d	-0.10418735
5	0x3e5b1a62	0.21396783
6	0xc0993d1a	-4.7887087
7	0xba385d57	-0.00070329517
8	0xc09f0223	-4.969011
9	0xbd0202f1	-0.031741086
10	0x408073ed	4.014151
11	0xbcdd4569	-0.027010636
12	0x406e8709	3.726992
13	0x3d558e46	0.052137636
14	0x3e605840	0.21908665
15	0xbec023bd	-0.37527266
16	0x3e54f7d5	0.20797665
17	0x3e9158e3	0.28388128
18	0x3fd2d9d7	1.647273
19	0x3e0d3872	0.13791063
20	0xc08fb814	-4.4912205
21	0x3be5db86	0.0070146946
22	0xbe2c0b32	-0.16801146
23	0x3eb2771f	0.34856507
24	0x408401e9	4.125233
25	0x3c97b545	0.018519053
26	0xc09b2582	-4.8483286
27	0x3de674bd	0.11252735
28	0x3f90c5cb	1.1310362
29	0x3e4386d1	0.19094397
30	0xbe8c6fba	-0.2742899
31	0x3e356cb2	0.17717245
32	0xbe9568b5	-0.29181448
33	0xbf1eca49	-0.6202741
34	0xbf1eb08b	-0.61988133
35	0x3e9f0286	0.31056613
36	0xbdd97b33	-0.106192015
37	0x3dfcc1b5	0.12341634
38	0x406ef4c2	3.7336888
39	0x3d267c27	0.040645745
40	0x4082ddd5	4.089579
41	0x3d11935b	0.03554092
42	0xc0a49987	-5.143741
43	0x3d0d03a7	0.03442731
44	0xc0499c77	-3.1501749
45	0x3d8da0dc	0.06915447
46	0xbd614b6e	-0.055003576
47	0xbf2ca8d2	-0.674451
48	0x3f51be27	0.81930774
49	0x3f3535f7	0.7078547
50	0xbea528cf	-0.32257697
51	0xbe9ca98a	-0.30598098
52	0x3ff34042	1.9003985
53	0x3e5f1970	0.21787047
54	0x3e922ffb	0.2855223
55	0xbee43452	-0.44571167
56	0xbe765735	-0.24056704
57	0xbeeb7d45	-0.4599401
58	0x3e0e21c6	0.13880071
59	0x3df97f36	0.12182467
60	0x3f2ca6ee	0.67442214
61	0xbe3938ce	-0.18088076
62	0x3fa6e7ab	1.303945
63	0x3e99f127	0.30066797

mods.0.bias f4 [32]
0	0x3f2bc2dd	0.6709421
1	0xbe28c0c7	-0.16479789
2	0xbf205fa8	-0.6264596
3	0x3fbc6cc1	1.4720689
4	0x3fc6dd86	1.5536354
5	0xbff7160a	-1.9303601
6	0xbfec7471	-1.8473035
7	0xbeaae68d	-0.3337902
8	0xbf033021	-0.51245314
9	0x3f8cf31b	1.101169
10	0x3fae6a6d	1.3626229
11	0xbeb12659	-0.3459957
12	0xc0001909	-2.001528
13	0x3fb88d59	1.4418136
14	0x3f85262d	1.0402275
15	0xbea805ea	-0.32817012
16	0xbe88ef15	-0.26744905
17	0xbf0a8f7e	-0.541252
18	0xbf22e315	-0.6362775
19	0xbfec34de	-1.8453634
20	0xbfff7e62	-1.9960444
21	0x3fca0ba5	1.5784804
22	0x3f69e86a	0.9137026
23	0xbe1e0bec	-0.15434235
24	0x3f5a0360	0.851614
25	0x3b916291	0.004436799
26	0x3f4957a9	0.78649384
27	0xbf1fcb11	-0.6241923
28	0xbdfefb53	-0.1245028
29	0xbe83aa20	-0.25715733
30	0x3f9e5c0c	1.237184
31	0x3f3670a1	0.7126561

mods.1.weight f4 [1, 32]
0	0x3f893b42	1.0721209
1	0x3db4aa16	0.08821504
2	0xbdf18e00	-0.117946625
3	0xc104b85e	-8.2950115
4	0xc0fe077a	-7.9384127
5	0xc0ff7b59	-7.983807
6	0xc10c0c34	-8.752979
7	0x3d9b34fb	0.075784646
8	0x3e1c854d	0.15285225
9	0x3f95c444	1.170052
10	0xc100f715	-8.060323
11	0x3d46c16f	0.048524316
12	0xc10186dd	-8.095426
13	0xc0f77660	-7.7332
14	0x3f43a153	0.76418036
15	0x3dd02ab7	0.10164397
16	0x3ca57379	0.020196663
17	0xbc9f1e41	-0.019423606
18	0xbc72ae7d	-0.014812109
19	0xc106a5c9	-8.415475
20	0xc0ffc974	-7.9933414
21	0xc0f7a5fa	-7.739011
22	0xc0cddff1	-6.4335866
23	0x3d834c5d	0.064110495
24	0x3f2617b2	0.64879906
25	0xbb7077a8	-0.0036692414
26	0x3fa6d237	1.3032902
27	0xbdd89ec5	-0.10577158
28	0x3d50b98a	0.050958194
29	0x3e1941d0	0.14966512
30	0x3f370065	0.71484977
31	0x3f5762f8	0.8413539
