models/pos_vs_neg_model.pt (torch, 19607 bytes, 5 tensors)

mods.0.weight f4 [64, 2]
00000000: 1553 3c3f 90c4 2e3f 3f7f 69bd 6fe2 6a3f
00000010: 67a8 d7be f96d 24bd fa71 37bf 155d 933e
00000020: 8993 1f3f 06cd 04bf 61f3 563f 9215 4b3e
00000030: f2c4 273f 9369 ccbd c144 0c3f 6136 2bbd
00000040: b10a 093f 33ca c13d 9c03 a9be ec90 383e
00000050: 454b 6bbf f1fa f83a becf b1bb 6fcf 263f
00000060: ebd9 97bf eace 5a3b 0c76 4cbe 13af d9be
00000070: 4af6 bf3b 2441 85bf 1dfe 5e3f aa02 f8bb
00000080: 030b 4e3f 02b5 823e 9afb a6be 146a 1e3f
00000090: 60d5 ca3d d464 4d3f 7440 0b3e e9c1 efbe
000000a0: ba8e 8c3e 9070 4cbe d77c 803d 6c0b 733f
000000b0: 7ab1 233f 6d0a 40be b65a 223f 61d0 d5bb
000000c0: ff95 183f 4cf2 dbbe 4c31 33bf a1e0 8bbe
000000d0: a2fe 56bf 228f f83e 948e 503e 18f6 953e
000000e0: 04a2 e03d bba8 97be bc05 433f 6196 e6be
000000f0: 7be2 c8ba cf92 a1bf 4c45 5f3e 025c 79be
00000100: 47e5 653e 4b4e 9abe 0131 143f 7689 25bf
00000110: e0b1 86be 44d0 20bf ad12 873f 2924 cabb
00000120: 8e3c 673f 7c87 ffbe 7b8c 33bf 7b9f 0dbf
00000130: 1a8a f3be e4a3 923e c3bd 9b3e 9e3c 5f3f
00000140: 87e6 473c 8e11 8ebf fe16 c03e 7056 92be
00000150: 0e1b 233f 2633 9fbc dac1 b23e 5087 80bf
00000160: 8c80 4dbf 58aa 9bbc 5013 193e 209c 38be
00000170: 71ad 173f 3ff4 673f 3945 03bf eb47 c1be
00000180: ab2b 683f 4dc3 17bd 720a 7bbc 0431 bdbf
00000190: 961a 38bf f1eb 3d3d 8025 bfbd 3f66 03bf
000001a0: f0a5 baba 68eb 9dbf 988c a3bf 2263 993b
000001b0: abbc 75bf a0fa 2a3b 6aff 553f 651b 41bd
000001c0: 591d 8d3c 2ec6 70bf 5e58 84bf cbc0 9f3c
000001d0: 1b2c 563e e200 f2bf 22fe 9bbe bdbd d8be
000001e0: 006c 003b 3bb7 86be b3b2 aab9 0ed9 90bf
000001f0: 6880 f8be c936 d3be 8ed9 77be 06e0 0ebf
0.73564273 0.6826868 -0.057006117 0.9175176 -0.42120668 -0.04014394 -0.7165829 0.28781953
0.62334496 -0.5187534 0.83965117 0.19832447 0.6553489 -0.09981074 0.5479241 -0.041799907
0.5353194 0.094623946 -0.33010566 0.18024033 -0.9191173 0.0018995685 -0.005426376 0.6516027
-1.1863378 0.003338749 -0.19966906 -0.42516384 0.0058582174 -1.0410504 0.87106496 -0.007568677
0.8048555 0.25528723 -0.32613832 0.6188061 0.09903979 0.80231977 0.13598806 -0.4682763
0.27452642 -0.19964814 0.06273811 0.94939303 0.6394268 -0.18753977 0.63419664 -0.006525085
0.59603876 -0.42958295 -0.69997096 -0.27319816 -0.8398229 0.48546702 0.20366889 0.29289317
0.10968402 -0.2962092 0.76180625 -0.45036605 -0.0015326286 -1.2622927 0.21803778 -0.24351504
0.22450744 -0.30137858 0.57887274 -0.64662874 -0.26307583 -0.6281779 1.0552574 -0.0061688614
0.90326774 -0.49908054 -0.7013623 -0.5532147 -0.475663 0.28640664 0.30418214 0.8720187
0.012200958 -1.1099107 0.37517542 -0.28581572 0.6371316 -0.01943357 0.34913522 -1.0041294
-0.8027427 -0.019002125 0.14948773 -0.18028307 0.59249026 0.90607065 -0.512775 -0.37750182
0.9069163 -0.037051488 -0.015322315 -1.4780583 -0.71915567 0.04636759 -0.093333244 -0.5132789
-0.0014240127 -1.2337465 -1.2777281 0.004681007 -0.9599101 0.0026089326 0.83592856 -0.047145266
0.017225908 -0.940524 -1.0339468 0.01950111 0.20915262 -1.890652 -0.30467325 -0.4233226
0.0019595623 -0.2631167 -0.00032558068 -1.131624 -0.48535466 -0.41252735 -0.24204084 -0.5581058

mods.0.bias f4 [64]
00000000: b41c 093f 148a 80be 3d02 393f 7846 883e
00000010: 6049 19bf f11e d33e 1f0a 7fbe 8b58 84be
00000020: e4c2 18bf 59f6 33bf bf81 7c3e 5a33 04bf
00000030: 5295 a23e 538e 14bf 0a4c 533f 3b8b 20bf
00000040: ff97 f3bd 217e ba3d 35fc 7e3e c0f8 103f
00000050: c789 163f e004 38bf b6d4 343e 56c2 2cbe
00000060: a418 a1bd be7d 07bf 73c9 283f f6db 04bf
00000070: c933 ce3e 73de 903e c2ba 7a3e 1ebc c3be
00000080: dd82 1a3f efa8 953e b752 883e 4f54 20bf
00000090: f890 b83e c840 d9bd d4db a5be f4dd f73e
000000a0: 7c49 af3e b54e c8be d0d2 a3be 8661 73bd
000000b0: e1a9 093f b806 39be 9e9f 11bf 82f4 77be
000000c0: 9e63 71be fdae 983e 1cd9 203f 3d6b 2abf
000000d0: dbed 753e 692c af3e a265 833e f17a 5dbe
000000e0: d82c 3d3f 6c1e 1b3f 7bb5 533f c878 febd
000000f0: 90bc 3fbe 2410 603e 90d2 ffbd 9cc6 57be
0.5355942 -0.25105345 0.7226904 0.26616263 -0.59877586 0.41234544 -0.24906205 -0.25848803
-0.5967238 -0.7029777 0.24658869 -0.51640856 0.31754547 -0.5802967 0.825379 -0.6271245
-0.11894225 0.091060884 0.24900897 0.5662956 0.5880398 -0.7188244 0.17659268 -0.16871008
-0.07866028 -0.5292624 0.6593239 -0.51898134 0.40273884 0.28294715 0.24485305 -0.3822946
0.6035593 0.2923045 0.26625606 -0.62628645 0.36048102 -0.10608059 -0.32394278 0.48411524
0.34235752 -0.3912255 -0.31996775 -0.059419177 0.5377484 -0.18068969 -0.5688418 -0.24214366
-0.23573157 0.29821005 0.6283128 -0.6656988 0.24016516 0.3421357 0.25663477 -0.2162893
0.7389655 0.60593295 0.8269879 -0.12425381 -0.18724275 0.21881157 -0.124913335 -0.21071857

mods.1.weight f4 [64, 64]
00000000: 4218 953d 65af 393e b766 a93d 28c8 813e
00000010: 8014 ef3a 4756 31bd 5bdb 8a3e 1a25 fb3e
00000020: 8726 d7bd 84f2 3cbd 1c32 1840 1611 7440
00000030: 927f 1640 0858 9abd c022 143f 22f3 8740
00000040: e665 28be d3de b03d a790 c33d 3689 a63d
00000050: 0de3 cabd 0bb8 fb3f 4ac9 eebd c756 623e
00000060: 8f2d 063e d097 04bd fdab 333e e802 43bd
00000070: e0f7 73bd ebe5 533c 9621 2a40 2847 cdbc
00000080: 3611 dbbd 2e06 353e 31b9 363f 08d9 81bf
00000090: a7f0 2abe 18a8 fcbd f6ea cfbd bdb3 d73d
000000a0: c046 cb3f d66c d73d 2e57 083f 18bf de3e
000000b0: 80fb 243f 86b0 c2bd 659a 84be 0273 efbd
000000c0: fa32 7d3e c770 1140 ec59 253e 5054 93bd
000000d0: 9bde 3340 3fba f83f 2e99 f03f db1e 393e
000000e0: 503d 033f 0c15 50bf c6d3 00c0 10cb bbbd
000000f0: 68ac b4bc 03ad 2740 60a4 1cbd fcb5 f3bd
00000100: b02b 313e 40ca 0cbe bdff 5d3d 2dd2 41be
00000110: 10e5 b63d d1c5 6b3c 54cf efbd 11ac 04bf
00000120: 7ad1 153d d269 f03d 7b58 0fc0 ef54 6bc0
00000130: 6e0b 15c0 8cc1 d5bd 233f 26bf c82e 8cc0
00000140: 15a4 873e a59d ad3d fa4e 543e 777f 84bb
00000150: bede 76bd 4511 00c0 2c46 293e cd90 3fbe
00000160: 7402 91be ea75 99bd f8b3 2abd 6803 7cbd
00000170: 580a e1ba 2925 863c 9289 19c0 c80c d23d
00000180: 0d9b 163e 7130 40be e682 1ebf 7875 823f
00000190: 86d5 4cbd fe1f f9bd 044a 3e3d bdae a63c
000001a0: 648c c9bf a0ca 1fbc 0003 01bf 93a0 16bf
000001b0: 7d09 11bf 0034 d9bc e360 1e3e 0c26 75bd
000001c0: 51cb 99be 7126 ecbf 6fc2 21be 64ab 073d
000001d0: 6d1f 15c0 077c f6bf beca e3bf 5b6a 41bd
000001e0: cc6b 3dbf b681 743f b225 ff3f dcb2 063d
000001f0: f4a0 ab3d 75cf 04c0 10e8 9cbc 2889 d43c
00000200: 8a4b e93c 79ae a7bd 8642 8b3d 0b29 4dbe
00000210: 76fe a1bd a623 013d af0b 9dbe e898 14bf
00000220: de32 d8bd 883b fdbc 45cf 0bc0 b9d4 6dc0
00000230: c558 1bc0 8c5e cdbd 43c9 2fbf 9a86 8dc0
00000240: f473 483e efe1 2f3d 159c 0b3d feaa 893c
00000250: 12aa 2c3d 69a2 06c0 af27 473d 644e 38be
00000260: f6b1 c2be 0414 89bd 3107 963d b44d 77bd
00000270: 5d1f adbc d55d b83d 0edb 11c0 d043 8c3d
00000280: 6a48 173e e205 ecbd 3daf 3cbf b455 8a3f
00000290: 091b 163e 9049 3dbc 00db 96bd 13ea 593e
000002a0: caf4 c5bf 90c0 91bd 682b 14bf a275 13bf
000002b0: 486c 0bbf f0ac e23c 4b2a 6d3e ae25 c2bd
000002c0: be53 a2be a4a6 fbbf 054c d2bc 1eb1 933d
000002d0: 09a4 19c0 79a7 ffbf 273f 01c0 d513 38be
000002e0: 76dd 24bf 52c8 713f c224 fc3f 0009 ebbd
000002f0: 5e2a ab3d 1b97 13c0 2cba 3f3d 88a3 d83d
00000300: 6e59 6abc d5e3 033e 45a8 00be 021b 45bd
00000310: 1050 953d 3761 3abd b951 f5bc 8ed3 68bd
00000320: 72b4 c43d 3c23 7b3d d826 4e3d 1809 1ebc
00000330: 1333 c0bd 5083 5d3c 05ea cf3c 8065 6cbd
00000340: 398e 48bd 39fe a53d 6065 87bb 44b0 94bc
00000350: a626 59bd bd33 74bd f60e 13be 5ab5 52bd
00000360: f6bb 65bd f483 1f3d c817 50bd 444e 48bd
00000370: e67f ca3d 489d 7c3c 8b71 a53d a0dd 77bd
00000380: 540d 95bd 9422 073d 17bc 9cbd fc8d 68bd
00000390: a3a4 09bd fc44 3bbd 96e9 bfbd 3219 703d
000003a0: 20f5 dd3d e01d a63c bf58 08bd cf63 e0bd
000003b0: 0f1e 77bd 0c59 023d a9a1 913d 9873 81bc
000003c0: dcae 87bd 5a94 9d3d 6e8b f0bd eecb a13d
000003d0: 28f7 64bd ca97 063c 3018 99bc 6626 303c
000003e0: 1c5d 47bd 463c ae3d 7620 3cbc 5ed5 c73d
000003f0: 9623 f63d eaac 59bd 1cc1 babd aa63 cd3d
0.072800174 0.18133314 0.082715444 0.2534802 0.0018240362 -0.04329517 0.2712048 0.49051744
-0.105053954 -0.04612972 2.3780584 3.8135428 2.3515363 -0.07536322 0.57865524 4.2484293
-0.16445121 0.0863625 0.095490746 0.0813164 -0.09906588 1.966554 -0.116594866 0.22103415
0.13103317 -0.032371342 0.17546077 -0.047610193 -0.059562564 0.012933235 2.6583 -0.025058344
-0.10696642 0.17678139 0.7137633 -1.0144358 -0.16693364 -0.12336749 -0.10152237 0.10532329
1.5880966 0.10518806 0.53258026 0.43505168 0.6444626 -0.095063254 -0.25899044 -0.11691858
0.24726477 2.2725084 0.16147584 -0.07193816 2.8104618 1.9431838 1.8796747 0.18078177
0.5126543 -0.81282115 -2.0129256 -0.091695905 -0.022054866 2.6199348 -0.038242698 -0.11899945
0.17301822 -0.13749027 0.05419897 -0.18927832 0.08930409 0.014390425 -0.117094666 -0.5182505
0.036576726 0.117389336 -2.2397754 -3.677059 -2.3288226 -0.10437307 -0.6494009 -4.3807106
0.26492372 0.08477334 0.20733252 -0.0040435153 -0.060271017 -2.001054 0.16530675 -0.18707581
-0.28322184 -0.074931934 -0.041675538 -0.061526686 -0.001716922 0.016375141 -2.3990216 0.10256344
0.14707585 -0.18768479 -0.61918485 1.0192099 -0.05000832 -0.12164305 0.046457306 0.020346994
-1.5745969 -0.009752899 -0.503952 -0.58838767 -0.566551 -0.026514053 0.15466647 -0.059850737
-0.3003793 -1.8449231 -0.15796827 0.033122435 -2.330043 -1.92566 -1.7796247 -0.04722057
-0.7399261 0.95510423 1.9933379 0.032885417 0.08380309 -2.0751622 -0.019153625 0.025944307
0.028478403 -0.08187575 0.06799798 -0.20035188 -0.07909863 0.031528138 -0.30672976 -0.58045816
-0.10556577 -0.030912176 -2.1845257 -3.7161086 -2.427293 -0.10027799 -0.68666476 -4.422681
0.19575483 0.042940076 0.0340844 0.016805168 0.04215438 -2.1036627 0.04862183 -0.17998654
-0.38026398 -0.06693271 0.073255904 -0.060376838 -0.02113312 0.09002272 -2.278995 0.06848872
0.14773718 -0.115245596 -0.7370489 1.0807405 0.1465875 -0.011553183 -0.0736599 0.21280698
-1.5465329 -0.071168065 -0.5787873 -0.5760137 -0.544621 0.027670354 0.23160665 -0.09479843
-0.31704515 -1.966023 -0.025671015 0.07211517 -2.400637 -1.9972984 -2.0194795 -0.17976315
-0.6440042 0.9444629 1.9698718 -0.11476326 0.0835769 -2.3060977 0.046808407 0.10578066
-0.014303548 0.1287988 -0.1256419 -0.04812146 0.07290661 -0.045502868 -0.029946195 -0.05684238
0.0960473 0.0613129 0.050330013 -0.009645723 -0.09384742 0.013520077 0.025380144 -0.057713985
-0.04896376 0.0810513 -0.004131958 -0.018150456 -0.053015374 -0.059619654 -0.14361176 -0.05144248
-0.056087457 0.0389442 -0.05080393 -0.048902765 0.09887676 0.015418358 0.08078297 -0.060514092
-0.07277933 0.03299196 -0.07653063 -0.05677603 -0.033604275 -0.045720086 -0.09370725 0.058617778
0.108377695 0.020277917 -0.03328776 -0.10956537 -0.0603314 0.031823203 0.07110912 -0.01580219
-0.06625149 0.076943114 -0.11745344 0.079002246 -0.05589977 0.0082149 -0.018688291 0.010751342
-0.04867278 0.0850759 -0.011482349 0.097574934 0.12018506 -0.05314342 -0.09118864 0.10028775

mods.1.bias f4 [64]
00000000: 540c a53d 9a00 ae3d 7f82 63bc bedc 7b3d
00000010: a8c9 433d d9dd 0bbd a056 c53c 6b4b 973c
00000020: 1d0e d33c dc87 373c 72c6 33bd 6afb 87bd
00000030: fe68 063e 405c 8f3d ab9a f03c 75e5 033d
00000040: b656 0ebd 5994 123e 9010 4bbc 9c6c 3abd
00000050: 9427 b33d 8ccc 71bd 79bf 41bc 3b61 d23a
00000060: 007e b0bb 4254 8b3d b09f dabd 389b 13bd
00000070: 4831 57bd 09fd 183e 3ecc 913d 277f cfbd
00000080: e06e 463d 8591 c43c f3e1 b03e 07d9 b73d
00000090: 2413 7ebd d23f e03d e025 b7bc 22fc 123d
000000a0: ef70 983d 4e41 153e 3f9c 783d afac f6bd
000000b0: 638c 55bd 2cc9 0c3e 6ff7 8dbc d51b 93bd
000000c0: e20d ccbd be50 8dbd 67d1 cdbd a788 933e
000000d0: 9c8e 4c3d df09 d63d 074f ca3d 0abb 2fbc
000000e0: 763e b03d 8a53 923d 70ce dcbd c18b b63d
000000f0: 25d3 74bd 7bc8 093e 6803 2bbd 956a 633d
0.08058992 0.084962085 -0.013886093 0.061489813 0.047799736 -0.034147117 0.024089158 0.01846858
0.025763566 0.011201825 -0.043890424 -0.0663975 0.13125989 0.07000017 0.029370626 0.03220125
-0.034750663 0.14314403 -0.0123940855 -0.045513734 0.08747783 -0.05903296 -0.011825436 0.0016050705
-0.005386114 0.0680318 -0.10674989 -0.0360367 -0.052537233 0.14940275 0.07119034 -0.10131674
0.048445582 0.02399517 0.34547386 0.089769416 -0.062029973 0.10949673 -0.022356927 0.035884984
0.074434154 0.14575693 0.060695883 -0.120446555 -0.052135836 0.13748616 -0.0173299 -0.07183043
-0.099635854 -0.06900166 -0.10049706 0.28815195 0.04994069 0.104511015 0.098783545 -0.010725746
0.086056635 0.0714484 -0.10781562 0.08913375 -0.059771676 0.13455383 -0.041751295 0.055521566

mods.2.weight f4 [1, 64]
00000000: b96d d7bf 49cc 0240 727d e93f ece6 c3bd
00000010: e076 c93f 78c5 873d d050 85bd 4db8 1bc0
00000020: f007 07c0 df2c 16c0 8318 15c0 4021 193c
00000030: ed50 e2bf 7aa4 f8bf c7f9 e63f 5812 d53f
00000040: b689 04c0 2e7e 2bc0 e682 96bd 74a0 34bd
00000050: 762d 0ec0 c144 df3f a04f 45c0 68b5 1d3d
00000060: 3258 ce3f 0a72 bebd 6819 87bd 6446 cabd
00000070: 44a3 083d e50c ee3f 19eb 11c0 69c5 8b3d
00000080: e873 543d 3d0d a7bf e01d ecbf f4da 47c0
00000090: 4a85 acbf 7296 d53f 9048 5cbc 808d 3cc0
000000a0: f45c ee3f a3de 19c0 db82 a3bf af16 e73f
000000b0: b80b c83d 539f cf3f 1c29 b1bf 0b4e 973c
000000c0: c6d3 e0bd 1040 c7bc 2f6a c9bf 568d 0d40
000000d0: 5abb a7bd bf60 623c 7a41 fa3f 2c1d b13d
000000e0: 4282 debf 1ae2 e93d cede f1bd 4699 36c0
000000f0: d223 cd3f 4efb f33f 0830 e33f 180e 26c0
-1.683036 2.0437186 1.8241408 -0.09565529 1.5739403 0.06629461 -0.065095544 -2.4331238
-2.1098595 -2.3464887 -2.329621 0.009346306 -1.7680947 -1.9425194 1.8044976 1.6646223
-2.0709052 -2.6795764 -0.07349186 -0.044098333 -2.2215247 1.7442857 -3.082985 0.03850308
1.6120665 -0.09299095 -0.06596643 -0.09876707 0.033358827 1.8597685 -2.2799742 0.068247624
0.05186835 -1.3050915 -1.8446617 -3.1227388 -1.3478177 1.6686537 -0.013445035 -2.9461365
1.8622117 -2.4042137 -1.2774309 1.8053797 0.0976786 1.6220497 -1.384067 0.018469831
-0.109778926 -0.02432254 -1.573553 2.2117515 -0.08190031 0.013817011 1.9551232 0.08648142
-1.7383502 0.114200786 -0.11810075 -2.853105 1.6026556 1.9061067 1.7749033 -2.5946102
