models/pos_vs_neg_model.pt (torch, 19607 bytes, 5 tensors)

mods.0.weight f4 [64, 2]
000000 6d 1f 3e 3f b5 2c 29 3f d1 48 8c 3d 6e 19 80 3f
       0.742667 0.6608384 0.06849826 1.000776
000010 74 52 04 bf da 58 3d bd 2f 32 83 bf 04 f9 e7 3e
       -0.51688313 -0.046227314 -1.024969 0.4530717
000020 89 93 1f 3f 06 cd 04 bf ce 2f 55 3f 94 80 2a 3e
       0.62334496 -0.5187534 0.8327607 0.16650611
000030 3c a9 24 3f ce d0 ae bb 17 b9 0b 3f cd 3e f1 bd
       0.6432073 -0.00533495 0.545793 -0.117795564
000040 38 27 09 3f 13 d0 c2 3d 9c 03 a9 be ec 90 38 3e
       0.5357547 0.09512343 -0.33010566 0.18024033
000050 f1 a8 76 bf a8 09 0b bc 55 f5 8f bc 46 34 2d 3f
       -0.96351534 -0.008486189 -0.017573038 0.6765789
000060 28 06 a1 bf 93 82 c9 3b 0c 76 4c be 13 af d9 be
       -1.2580004 0.006149599 -0.19966906 -0.42516384
000070 9d 59 86 3a 9b 82 86 bf e7 17 5b 3f 39 ff c7 bb
       0.0010250096 -1.0508608 0.8558335 -0.006103423
000080 61 af 55 3f e9 93 7b 3e c7 78 a0 be 47 5d 1e 3f
       0.8347073 0.24568142 -0.31342146 0.6186108
000090 9d fc a9 3d dd 5e 43 3f b0 80 10 bb 1c c9 0b bf
       0.08300135 0.76316625 -0.002204936 -0.54603744
0000a0 b4 ab 2f 3e e2 9d b9 be 7c a5 7a 3d df 57 7a 3f
       0.17155343 -0.36253268 0.061192974 0.9779033
0000b0 56 e2 2a 3f ef ea 5c be b1 53 1a 3f 2f 0a af bb
       0.6675161 -0.21573995 0.6028395 -0.00534179
0000c0 18 05 25 3f 52 b6 9b be 4c 31 33 bf a1 e0 8b be
       0.644609 -0.30412537 -0.69997096 -0.27319816
0000d0 e0 6f 6c bf 0f 63 f6 3e 94 8e 50 3e 18 f6 95 3e
       -0.9235821 0.4812245 0.20366889 0.29289317
0000e0 3b 01 b1 bd f1 dc b1 be 2d dc 3f 3f ae 37 24 bf
       -0.08642813 -0.34738877 0.74945337 -0.6414746
0000f0 91 5a 25 3c 5e dc 9c bf 4c 45 5f 3e 02 5c 79 be
       0.0100923935 -1.2254751 0.21803778 -0.24351504
000100 3f ac b1 3d 41 21 1d bf 27 f7 1a 3f d9 c2 12 bf
       0.086754315 -0.61378866 0.60533375 -0.57328564
000110 3a ac 1d bf b4 81 6e be 1e 0e 6d 3f 33 8b 0c bc
       -0.6159092 -0.23291665 0.92599666 -0.00857811
000120 fe 65 6a 3f 8e 35 12 bf 7b 8c 33 bf 7b 9f 0d bf
       0.9156188 -0.5711297 -0.7013623 -0.5532147
000130 1a 8a f3 be e4 a3 92 3e 5e 88 aa 3e 15 b3 4f 3f
       -0.475663 0.28640664 0.33307165 0.8113263
000140 e3 5b 8c bd 27 93 97 bf fe 16 c0 3e 70 56 92 be
       -0.068534635 -1.1841782 0.37517542 -0.28581572
000150 9e fb 25 3f d4 81 a7 bd 79 b7 a8 3e 43 b5 7d bf
       0.6483706 -0.081790596 0.3295248 -0.9910471
000160 80 5c 47 bf 47 03 94 3b 50 13 19 3e 20 9c 38 be
       -0.7787552 0.0045169923 0.14948773 -0.18028307
000170 65 9b 3b 3f 7c de 69 3f 39 45 03 bf eb 47 c1 be
       0.7328399 0.9135511 -0.512775 -0.37750182
000180 ae 39 68 3f 1b 88 4f be a8 e7 73 bc 68 10 c3 bf
       0.9071301 -0.20266764 -0.014886774 -1.5239382
000190 f1 89 49 bf 10 20 28 3d 80 25 bf bd 3f 66 03 bf
       -0.78726107 0.041046202 -0.093333244 -0.5132789
0001a0 19 83 4d bc ff d1 9e bf c6 9f ab bf c3 44 be 3b
       -0.012543463 -1.2407836 -1.3408134 0.005806537
0001b0 4c 2f 81 bf 5f 18 c7 bb da 2d 4e 3f 80 d7 d5 bb
       -1.0092559 -0.0060759033 0.80538714 -0.0065259337
0001c0 ed 15 b5 3a 95 c1 74 bf 40 40 73 bf cf 97 8c be
       0.0013815738 -0.9560788 -0.9501991 -0.2745957
0001d0 94 59 4f 3e a0 e3 f9 bf 22 fe 9b be bd bd d8 be
       0.20249015 -1.9522591 -0.30467325 -0.4233226
0001e0 00 6c 00 3b 3b b7 86 be a9 ca 43 bc bf 4f 93 bf
       0.0019595623 -0.2631167 -0.011950173 -1.1508712
0001f0 68 80 f8 be c9 36 d3 be 8e d9 77 be 06 e0 0e bf
       -0.48535466 -0.41252735 -0.24204084 -0.5581058

mods.0.bias f4 [64]
000000 17 ba fe 3e c2 22 aa be ed 47 32 3f 5a 33 86 3e
       0.4975135 -0.33229643 0.69641 0.26211053
000010 60 49 19 bf a9 8f bf 3e e1 81 30 be a6 19 37 be
       -0.59877586 0.37414292 -0.17237045 -0.17880878
000020 52 a6 18 bf 59 f6 33 bf c5 0e 79 3e 81 32 09 bf
       -0.59628785 -0.7029777 0.2432204 -0.5359269
000030 c6 aa aa 3e 53 8e 14 bf c0 18 56 3f 11 1f 20 bf
       0.33333415 -0.5802967 0.83631516 -0.62547404
000040 cb ed 15 be 68 9d de 3d 59 1f 48 3e f0 9b 03 3f
       -0.14641492 0.108698666 0.19543208 0.51409817
000050 3e 27 e9 3e 33 16 3b bf fc 44 03 3e e9 b2 25 be
       0.45537752 -0.7308075 0.12819284 -0.1618153
000060 9b 7f 69 be be 7d 07 bf b4 7e 2c 3f f6 db 04 bf
       -0.22802584 -0.5292624 0.67380834 -0.51898134
000070 e0 2d aa 3e 86 bb 64 3e d7 6a c7 3e 1e bc c3 be
       0.33238125 0.2233716 0.389487 -0.3822946
000080 a0 25 c6 3e 2f e0 96 3e c1 45 50 3e 07 e4 2c bf
       0.3870058 0.29467914 0.20339109 -0.6753544
000090 c3 bb a2 3e c8 40 d9 bd d4 db a5 be b3 e0 d7 3e
       0.31783876 -0.10608059 -0.32394278 0.4216362
0000a0 74 36 8e 3e b5 4e c8 be c2 3f 80 be 59 7c 82 bd
       0.2777592 -0.3912255 -0.25048643 -0.06371374
0000b0 b3 2c 11 3f b8 06 39 be 6f 64 1a bf 82 f4 77 be
       0.5670883 -0.18068969 -0.603095 -0.24214366
0000c0 51 8a 92 be 6b 32 9b 3e 33 8b 28 3f 3d 6b 2a bf
       -0.28621152 0.30311903 0.658374 -0.6656988
0000d0 dd 4a 7f 3e 9e 1b b6 3e f8 ab 89 3e f1 1f 5d be
       0.24930902 0.35567945 0.26889014 -0.21594216
0000e0 82 a7 42 3f a6 17 22 3f d0 53 63 3f c8 78 fe bd
       0.76036847 0.63317335 0.8879976 -0.12425381
0000f0 90 bc 3f be 6f 8f 58 3e 90 d2 ff bd 9c c6 57 be
       -0.18724275 0.21148466 -0.124913335 -0.21071857

mods.1.weight f4 [64, 64]
000000 95 ed 8d 3d ce 75 19 3e 79 59 e2 3d 9a 0e 65 bf
       0.06930081 0.14986345 0.11052222 -0.89475405
000010 80 14 ef 3a 9c b6 57 bd cb 8b ed 3d e9 a6 b1 3e
       0.0018240362 -0.052664384 0.11598929 0.34697655
000020 16 af d8 bd 84 f2 3c bd 27 fe 47 40 a2 26 b9 40
       -0.1058027 -0.04612972 3.1248872 5.785966
000030 35 a8 7a 40 08 58 9a bd f0 f7 21 3f bd 5a bb 40
       3.9165165 -0.07536322 0.6326895 5.8548265
000040 80 28 43 be b8 0e c2 3d dd d7 d3 3d 83 9f 99 3d
       -0.19058418 0.09475464 0.10343907 0.075011276
000050 4c ff c8 bd 51 5d 02 40 87 5c 07 be 67 86 35 3e
       -0.09814319 2.0369456 -0.1321889 0.17727052
000060 c2 b2 d4 3e d0 97 04 bd 97 95 62 3e e8 02 43 bd
       0.4154263 -0.032371342 0.22127376 -0.047610193
000070 c8 80 68 bd 99 9e 80 3a 07 32 c7 3f 28 47 cd bc
       -0.05676344 0.0009812891 1.5562142 -0.025058344
000080 12 0d ea bd 44 bf d5 3d 1f 42 fe 3e 4b c4 8c 40
       -0.11428274 0.10436872 0.4965982 4.3989615
000090 dc e4 35 be 18 a8 fc bd f6 ea cf bd 7c c3 db 3d
       -0.17763084 -0.12336749 -0.10152237 0.10730645
0000a0 70 58 10 40 d6 6c d7 3d 62 ca d3 3e 91 69 42 3e
       2.2553978 0.10518806 0.41365343 0.18985583
0000b0 03 1d 23 3f 86 b0 c2 bd 69 6f d3 be 02 73 ef bd
       0.63716143 -0.095063254 -0.41295937 -0.11691858
0000c0 1c 3e c0 3e 93 67 83 40 0d 0f 68 3e 50 54 93 bd
       0.37547386 4.1063933 0.22661991 -0.07193816
0000d0 5c ff 62 40 c8 f8 4d 40 20 02 4b 40 5c 54 02 3e
       3.546836 3.2183094 3.1720047 0.12727493
0000e0 58 61 0e 3f 90 6c 36 bf b4 2e 0a c0 10 cb bb bd
       0.55617285 -0.71259403 -2.1591005 -0.091695905
0000f0 68 ac b4 bc 30 be 47 40 60 a4 1c bd fc b5 f3 bd
       -0.022054866 3.1209831 -0.038242698 -0.11899945
000100 9c ed 38 3e ba a0 d7 bd ae 1e 0b 3d e2 2d 72 3f
       0.18059391 -0.10528703 0.033964805 0.9460126
000110 10 e5 b6 3d 83 ec 99 3c 7c 36 02 3d d8 1b be be
       0.08930409 0.018789535 0.03179024 -0.37130618
000120 57 f4 1b 3d d2 69 f0 3d 77 fd 3c c0 3a b2 b3 c0
       0.038074818 0.117389336 -2.9529703 -5.615506
000130 f6 19 77 c0 8c c1 d5 bd a4 e0 35 bf 31 d6 bc c0
       -3.8609595 -0.10437307 -0.710459 -5.9011464
000140 a9 0a 95 3e 58 1a a4 3d c5 b1 56 3e 9f bd 3d bc
       0.29109696 0.08012837 0.20966251 -0.011580854
000150 9d 70 95 bd c2 eb 03 c0 72 bb 2f 3e 4c f0 0b be
       -0.0729687 -2.0612645 0.17161348 -0.13665885
000160 8b 09 0f bf ea 75 99 bd 1a 2e 98 bd 68 03 7c bd
       -0.55873936 -0.074931934 -0.07430668 -0.061526686
000170 a2 bf 07 bc 99 d2 ad 3c 7a 4c c4 bf c8 0c d2 3d
       -0.008285435 0.021218585 -1.5335839 0.10256344
000180 8b 7c 15 3e 24 92 ea bd cc 3c d0 be b7 cd 88 c0
       0.1459829 -0.11453655 -0.40671384 -4.2751117
000190 ef b1 41 bd fe 1f f9 bd 04 4a 3e 3d 7a 80 d3 3c
       -0.04728883 -0.12164305 0.046457306 0.025818098
0001a0 6c ec 0a c0 a0 ca 1f bc 74 d9 c3 be 18 a7 c7 be
       -2.17068 -0.009752899 -0.3825184 -0.3899467
0001b0 b2 d6 0b bf 00 34 d9 bc 54 42 9f 3e 0c 26 75 bd
       -0.54624474 -0.026514053 0.31105292 -0.059850737
0001c0 b8 f6 d3 be d6 ff 62 c0 2e b0 55 be 64 ab 07 3d
       -0.4139917 -3.546865 -0.20867988 0.033122435
0001d0 67 27 4d c0 cb 8d 4b c0 db b8 43 c0 0d 06 83 3b
       -3.20553 -3.1805294 -3.0581577 0.003998524
0001e0 9d 18 4c bf 2f 56 5b 3f d5 67 09 40 dc b2 06 3d
       -0.79725057 0.8567838 2.1469624 0.032885417
0001f0 f4 a0 ab 3d 32 98 24 c0 10 e8 9c bc 28 89 d4 3c
       0.08380309 -2.5717893 -0.019153625 0.025944307
000200 7e f6 29 3d 47 14 4c bd 69 3e 38 3d 7d 1e 6f 3f
       0.04149484 -0.049824025 0.044981394 0.93405896
000210 76 fe a1 bd d5 4a 1e 3d fc 2f 25 be 6e 32 dd be
       -0.07909863 0.038645584 -0.16131586 -0.43202537
000220 eb 47 d7 bd 88 3b fd bc 90 5e 3e c0 d0 3d b6 c0
       -0.10511764 -0.030912176 -2.9745216 -5.6950455
000230 dc c6 80 c0 8c 5e cd bd 85 d8 41 bf 99 7c bd c0
       -4.024275 -0.10027799 -0.7572101 -5.9214597
000240 36 a0 69 3e 69 2b 17 3d 74 e5 29 3d 8f 1f 7c 3b
       0.22815022 0.036906634 0.04147859 0.0038470959
000250 6d 57 d0 3c 07 d0 0b c0 2d 51 62 3d 05 07 04 be
       0.025432313 -2.184572 0.055253197 -0.12893303
000260 5d aa 26 bf 04 14 89 bd cc d3 1b 3d b4 4d 77 bd
       -0.65103704 -0.06693271 0.038043782 -0.060376838
000270 ba aa e9 bc fa 95 c0 3d ae 11 b7 bf d0 43 8c 3d
       -0.028523792 0.09403606 -1.430227 0.06848872
000280 60 bc 12 3e 39 ee 2c bd 50 84 07 bf 48 2b 89 c0
       0.14329672 -0.042219374 -0.5293627 -4.2865334
000290 e7 fe 18 3e 90 49 3d bc 00 db 96 bd 3c a7 64 3e
       0.14940988 -0.011553183 -0.0736599 0.2232942
0002a0 70 29 0b c0 90 c0 91 bd e7 08 ea be f0 b1 c1 be
       -2.1744041 -0.071168065 -0.45709917 -0.37831068
0002b0 73 15 08 bf f0 ac e2 3c 1e 76 c8 3e ae 25 c2 bd
       -0.5315773 0.027670354 0.39152616 -0.09479843
0002c0 59 bc dc be 82 bd 6d c0 dc a2 aa bd 1e b1 93 3d
       -0.43112448 -3.7146916 -0.08331844 0.07211517
0002d0 e9 37 53 c0 0d 36 52 c0 43 65 54 c0 4c dd 07 be
       -3.3002875 -3.284549 -3.3186805 -0.13268012
0002e0 e9 e3 35 bf 62 71 58 3f 8e 81 08 40 00 09 eb bd
       -0.7105089 0.8454801 2.1329074 -0.11476326
0002f0 5e 2a ab 3d 3b 9c 35 c0 2c ba 3f 3d 88 a3 d8 3d
       0.0835769 -2.8376606 0.046808407 0.10578066
000300 4e 63 80 bc d2 cf d1 3d b8 4d f7 bd 13 94 62 bd
       -0.015672352 0.10244717 -0.120753706 -0.055316996
000310 10 50 95 3d bb ba 33 bd 14 cd 11 bd 67 24 71 bd
       0.07290661 -0.043879252 -0.03559597 -0.058872607
000320 64 64 c0 3d 3c 23 7b 3d 82 12 44 3d ef e7 6a bd
       0.09394148 0.0613129 0.047869213 -0.057350095
000330 f4 8a bf bd 50 83 5d 3c 3d 01 ee 3c 80 65 6c bd
       -0.09352675 0.013520077 0.029053325 -0.057713985
000340 43 a3 68 bd 3e 87 86 3d 09 49 0e bc 62 4a 19 bc
       -0.056796324 0.06568764 -0.008684405 -0.009356113
000350 f3 11 3b bd 72 86 cd bd 5f 74 0a be 0d 80 82 bd
       -0.045671415 -0.10035409 -0.13520955 -0.0637208
000360 df 0f 65 bd f4 83 1f 3d 64 39 4f bd 44 4e 48 bd
       -0.05592334 0.0389442 -0.05059184 -0.048902765
000370 b1 93 d4 3d 32 c2 dd 3c 2b 90 a5 3d a0 dd 77 bd
       0.103797324 0.027070139 0.080841385 -0.060514092
000380 26 60 87 bd d1 82 05 3d 06 bc 9a bd 0e 3e 8e bd
       -0.06610136 0.03259546 -0.07555394 -0.0694543
000390 92 60 b7 bc fc 44 3b bd 96 e9 bf bd 29 5c 67 3d
       -0.022384916 -0.045720086 -0.09370725 0.056484375
0003a0 d8 aa de 3d e0 1d a6 3c 18 4a e9 bc 32 d8 e5 bd
       0.108724296 0.020277917 -0.028477713 -0.112228766
0003b0 71 d3 5c bd 0c 59 02 3d e6 9b 56 3d 98 73 81 bc
       -0.053912584 0.031823203 0.05239477 -0.01580219
0003c0 58 ed 5a bd 50 50 9f 3d 68 0f e4 bd ee cb a1 3d
       -0.053449005 0.0777899 -0.11135751 0.079002246
0003d0 ec 4b 69 bd 1f c4 1a 3c b5 39 8d bc 8c 0c 82 3a
       -0.05695717 0.009446173 -0.01723943 0.0009921952
0003e0 99 fe 38 bd 3e 7e ba 3d 75 8d 3b bc 5e d5 c7 3d
       -0.04516468 0.0910611 -0.0114473 0.097574934
0003f0 96 23 f6 3d f5 8f 57 bd 1c c1 ba bd aa 63 cd 3d
       0.12018506 -0.052627522 -0.09118864 0.10028775

mods.1.bias f4 [64]
000000 9c 8c b6 3d cf 22 98 3d 7b db e2 bc 0a bc 89 3d
       0.08913538 0.07428514 -0.027692547 0.06725319
000010 98 cd 13 3d 8d be 09 bd a0 56 c5 3c 6e 8a 2d 3d
       0.03608474 -0.03362899 0.024089158 0.042368345
000020 c2 a4 1a 3d e3 fa 8d 3d 5e 26 b0 bc 6a fb 87 bd
       0.03775478 0.069326185 -0.02150267 -0.0663975
000030 1e b5 1d 3e 01 93 ac 3d d8 6f 9b 3c d1 d2 c3 3c
       0.15401122 0.08426476 0.01897423 0.023904236
000040 22 93 bb bc 34 fb 26 3e 90 10 4b bc 9c 6c 3a bd
       -0.022897307 0.16306764 -0.0123940855 -0.045513734
000050 85 a1 cb 3d 55 cc 8a bd af bf 91 3b 96 58 8d 3a
       0.09942917 -0.067772545 0.0044478993 0.0010783847
000060 77 9d 89 bc 42 54 8b 3d b0 9f da bd 38 9b 13 bd
       -0.016798718 0.0680318 -0.10674989 -0.0360367
000070 48 31 57 bd 04 b6 0e 3e 7e 2d b2 3d 8e de cf bd
       -0.052537233 0.13936621 0.08700083 -0.10149871
000080 89 71 31 3d df af 32 3b b8 94 af 3e d2 29 7d 3e
       0.043321166 0.0027265472 0.3429315 0.24722984
000090 79 20 b4 bd 5a 5d c6 3d e0 25 b7 bc d4 a8 70 3d
       -0.08795256 0.09685774 -0.022356927 0.058754757
0000a0 76 55 80 3d a4 c5 21 3e 31 d8 30 3d 42 27 07 be
       0.062663004 0.1579805 0.043174926 -0.1319857
0000b0 d5 8e 4e bd 37 05 01 3e 89 31 d3 bc 1c 95 96 bd
       -0.050429184 0.12599646 -0.025780456 -0.07352659
0000c0 e2 0d cc bd be 50 8d bd 78 3d ae bd 54 ac b5 3e
       -0.099635854 -0.06900166 -0.08507818 0.35483038
0000d0 9c 8e 4c 3d e6 55 cf 3d 92 e5 b2 3d 42 61 2c bc
       0.04994069 0.10123806 0.08735193 -0.010521235
0000e0 b1 78 cc 3d 8a 53 92 3d 70 ce dc bd 6d 16 d5 3d
       0.099839576 0.0714484 -0.10781562 0.10404668
0000f0 18 06 90 bd 9b 14 fe 3d 9a 61 5b bd 6f 10 85 3d
       -0.07032412 0.12406274 -0.053559877 0.06497275

mods.2.weight f4 [1, 64]
000000 06 82 09 c0 3e 4a 1b 40 36 10 0d 40 35 3e 97 bd
       -2.148561 2.4264064 2.2041144 -0.07384912
000010 be b3 ea 3f bf 42 88 3d d0 50 85 bd 60 9c 3e c0
       1.8336103 0.06653356 -0.065095544 -2.9782944
000020 5c ce 39 c0 96 cb 56 c0 dd 3a 36 c0 40 21 19 3c
       -2.9032202 -3.356176 -2.8473427 0.009346306
000030 6a 21 0d c0 09 31 27 c0 20 ca 05 40 71 fd f0 3f
       -2.2051644 -2.6123679 2.0904617 1.8827344
000040 08 bf 34 c0 f6 6f 48 c0 e6 82 96 bd 74 a0 34 bd
       -2.8241596 -3.1318336 -0.07349186 -0.044098333
000050 aa 9d 4b c0 85 50 fa 3f c4 8d 7a c0 46 47 1b 3d
       -3.181498 1.9555823 -3.9149027 0.03790977
000060 17 06 ef 3f 0a 72 be bd 68 19 87 bd 64 46 ca bd
       1.8673733 -0.09299095 -0.06596643 -0.09876707
000070 44 a3 08 3d 12 c4 07 40 e3 60 37 c0 03 a5 8b 3d
       0.033358827 2.1213422 -2.8652885 0.06818583
000080 a7 aa 40 3d f4 7b dc bf 11 a7 06 c0 ee 0b 11 c0
       0.047037747 -1.7225327 -2.103947 -2.2663531
000090 25 b0 e3 bf 27 78 fc 3f 90 48 5c bc ac a8 6f c0
       -1.778813 1.9724168 -0.013445035 -3.74467
0000a0 bd 76 04 40 38 c2 4e c0 81 27 cc bf f6 8b 05 40
       2.0697472 -3.2306042 -1.5949556 2.0866675
0000b0 dd a5 cf 3d c2 8d eb 3f 68 3a ef bf 9d e8 b1 3c
       0.10139058 1.8402636 -1.8689699 0.021717364
0000c0 c6 d3 e0 bd 10 40 c7 bc 8b 86 19 c0 42 fc 1d 40
       -0.109778926 -0.02432254 -2.3988369 2.4685216
0000d0 5a bb a7 bd e3 14 78 3c a0 e5 0f 40 d5 0a b2 3d
       -0.08190031 0.0151416985 2.2483902 0.08693472
0000e0 9d a1 10 c0 1a e2 e9 3d ce de f1 bd 24 93 5e c0
       -2.259864 0.114200786 -0.11810075 -3.4777308
0000f0 6b 79 f2 3f e8 de 0f 40 b2 1f 01 40 e4 4f d6 bf
       1.8943304 2.24798 2.0175595 -1.6743131
