models/pos_vs_neg_model.pt (torch, 19607 bytes, 5 tensors)

mods.0.weight f4 [64, 2]
0	0x3f32529f	0.6965732
1	0x3f2edc4c	0.68304896
2	0x3ba8354e	0.0051333075
3	0x3f81d88b	1.0144209
4	0xbee26070	-0.442142
5	0xbe275c96	-0.16343912
6	0xbf4397e8	-0.76403666
7	0x3e79c211	0.24390437
8	0x3f1f9389	0.62334496
9	0xbf04cd06	-0.5187534
10	0x3f4c9db0	0.7992811
11	0x3e43dc69	0.19127049
12	0x3f27976c	0.65465426
13	0xbcbeb9fa	-0.02328204
14	0x3f138842	0.5762979
15	0x3c08b414	0.008343715
16	0x3f090aad	0.53531915
17	0x3dc1c9d7	0.09462326
18	0xbea9039c	-0.33010566
19	0x3e3890eb	0.18024032
20	0xbf6f3933	-0.93446654
21	0xbc188e5b	-0.009311284
22	0x3b4bccc5	0.0031097394
23	0x3f2ac67c	0.66709113
24	0xbf9be473	-1.2179092
25	0x3ab5f23e	0.0013881398
26	0xbe4c760e	-0.1996691
27	0xbed9af13	-0.42516384
28	0x3c105458	0.008809172
29	0xbf87c29f	-1.0606269
30	0x3f63a9c5	0.8893092
31	0xbc1a0232	-0.0093999375
32	0x3f466232	0.77493584
33	0x3e888fe7	0.2667229
34	0xbe8f83a0	-0.2803011
35	0x3f1e23ec	0.6177356
36	0x3cdc8f7d	0.02692389
37	0x3f4e2c6d	0.8053654
38	0x3d873c20	0.06603265
39	0xbf186b5c	-0.5953882
40	0x3e1e1deb	0.154411
41	0xbea7e8d7	-0.3279483
42	0x3d3b62ff	0.045748707
43	0x3f77fb45	0.9686778
44	0x3f1a8255	0.6035512
45	0xbe4a590f	-0.19760536
46	0x3f233bd0	0.6376314
47	0xbb97d1f6	-0.0046331836
48	0x3f2170e7	0.630629
49	0xbef0d910	-0.47040606
50	0xbf33314c	-0.69997096
51	0xbe8be0a1	-0.27319816
52	0xbf5dffc9	-0.8671842
53	0x3ed733b0	0.42031622
54	0x3e508e95	0.2036689
55	0x3e95f619	0.2928932
56	0x3c5636b7	0.0130745685
57	0xbedf8b82	-0.43661124
58	0x3f237746	0.6385387
59	0xbf0c0353	-0.5469257
60	0xbc1bcf3d	-0.009509859
61	0xbfa62b35	-1.2981936
62	0x3e5f454c	0.21803778
63	0xbe795c02	-0.24351504
64	0x3cc6f1d9	0.024285244
65	0xbf0b07c4	-0.54308724
66	0x3f175720	0.5911732
67	0xbf2bdbba	-0.6713215
68	0xbe642a76	-0.22281823
69	0xbf297666	-0.66196287
70	0x3f92942c	1.1451468
71	0xbc760bfe	-0.015017508
72	0x3f592c16	0.84832895
73	0xbf0ca378	-0.54936934
74	0xbf338c7b	-0.7013623
75	0xbf0d9f7b	-0.5532147
76	0xbef38a1a	-0.475663
77	0x3e92a3e4	0.28640664
78	0x3e685563	0.22688822
79	0x3f60a08c	0.87744975
80	0xbb89c8e8	-0.004204858
81	0xbf94ddda	-1.1630204
82	0x3ec016fd	0.3751754
83	0xbe925670	-0.28581572
84	0x3f2c9226	0.67410505
85	0x3c137b84	0.009001616
86	0x3eac13cb	0.3360885
87	0xbf80ade7	-1.0053071
88	0xbf5a325f	-0.8523311
89	0xbb20386b	-0.002444769
90	0x3e19134e	0.1494877
91	0xbe389c1f	-0.18028305
92	0x3f27e2c1	0.65580374
93	0x3f686f1c	0.9079454
94	0xbf034539	-0.512775
95	0xbec147eb	-0.37750182
96	0x3f6a2065	0.9145568
97	0xbc104193	-0.008804697
98	0xbbc70106	-0.00607312
99	0xbfc24857	-1.5178326
100	0xbf38164c	-0.7190902
101	0xbc56a76c	-0.01310144
102	0xbdbf2583	-0.09333327
103	0xbf03663f	-0.5132789
104	0xba51f05a	-0.00080085325
105	0xbfa19ab5	-1.2625338
106	0xbfa74efe	-1.3070982
107	0x3a695a71	0.00089017214
108	0xbf78f5b4	-0.97249913
109	0xbc51e891	-0.012811796
110	0x3f581884	0.8441241
111	0xbbc6a496	-0.0060621006
112	0x3c3f4bb0	0.01167576
113	0xbf75fee2	-0.96092045
114	0xbf8a9306	-1.0826118
115	0x3cfc49e3	0.03079695
116	0x3e5a88c9	0.21341242
117	0xbffd9f79	-1.9814292
118	0xbe9bfe22	-0.30467325
119	0xbed8bdbd	-0.4233226
120	0x3b006c39	0.0019595756
121	0xbe86b73b	-0.2631167
122	0xbc36fd7c	-0.011168834
123	0xbf94cd35	-1.1625124
124	0xbef88068	-0.48535466
125	0xbed336c9	-0.41252735
126	0xbe77d98d	-0.24204083
127	0xbf0ee007	-0.5581059

mods.0.bias f4 [64]
0	0x3f0286c9	0.50986916
1	0xbea821ac	-0.3283819
2	0x3f385901	0.7201081
3	0x3ea3f724	0.3202449
4	0xbf194960	-0.59877586
5	0x3ec7405b	0.38916287
6	0xbeab3fa3	-0.33446988
7	0xbea130f0	-0.3148265
8	0xbf18c2f0	-0.5967245
9	0xbf33f659	-0.7029777
10	0x3e760677	0.24025904
11	0xbf088818	-0.5333266
12	0x3ea5e52a	0.324014
13	0xbf148e53	-0.5802967
14	0x3f577c07	0.84173626
15	0xbf24c132	-0.6435729
16	0xbe0946d5	-0.13405927
17	0x3d59d678	0.05318305
18	0x3e394d5f	0.18095921
19	0x3f001c79	0.50043446
20	0x3efcd954	0.49384558
21	0xbf370e89	-0.71506554
22	0x3e2721e0	0.16321516
23	0xbe2d96a0	-0.1695199
24	0xbd9aa701	-0.07551385
25	0xbf077dbe	-0.5292624
26	0x3f1e66d7	0.6187567
27	0xbf04dbf6	-0.51898134
28	0x3e9c1618	0.30485606
29	0x3e6a33e1	0.22871353
30	0x3e762f5b	0.24041502
31	0xbec3bc1e	-0.3822946
32	0x3edd5878	0.4323156
33	0x3ea09e48	0.3137076
34	0x3e891f33	0.26781616
35	0xbf2c4d41	-0.6730538
36	0x3ea90eff	0.33019254
37	0xbdd940c7	-0.106080584
38	0xbea5dbd4	-0.32394278
39	0x3ed0aaad	0.40755215
40	0x3ec05ca5	0.37570682
41	0xbec84eb5	-0.3912255
42	0xbebc5ab7	-0.3678796
43	0xbd861a2f	-0.06547963
44	0x3f0ec3c1	0.55767447
45	0xbe3906b8	-0.18068969
46	0xbf183a7e	-0.5946425
47	0xbe77f483	-0.24214368
48	0xbe788b74	-0.24271947
49	0x3e9a80dc	0.30176437
50	0x3f1eea6c	0.6207645
51	0xbf2a6b3d	-0.6656988
52	0x3e7bdf18	0.24596822
53	0x3eb22738	0.34795547
54	0x3e819415	0.2530829
55	0xbe65aef2	-0.22430018
56	0x3f424c8c	0.7589805
57	0x3f201451	0.62531
58	0x3f6262cd	0.8843201
59	0xbdfe78c6	-0.124253795
60	0xbe3fbc91	-0.18724276
61	0x3e5b93d7	0.21443115
62	0xbdffd28d	-0.12491331
63	0xbe57c69b	-0.21071856

mods.1.weight f4 [64, 64]
0	0x3d98931d	0.07449935
1	0x3e190ffb	0.14947502
2	0x3d8d6150	0.069033265
3	0x3ebb01b1	0.36524728
4	0x3aef1480	0.0018240362
5	0xbd07a6b0	-0.03311795
6	0x3eebce75	0.46055952
7	0x3f489758	0.7835593
8	0xbdd73d97	-0.10509794
9	0xbd3cf284	-0.04612972
10	0x40294d36	2.6453376
11	0x40ba0d09	5.814091
12	0x407c794b	3.9449031
13	0xbd9a5808	-0.07536322
14	0x3f1a943b	0.6038243
15	0x40ade1ed	5.433829
16	0xbe117cbc	-0.14207739
17	0x3cf73df4	0.030180909
18	0x3dae010f	0.08496296
19	0x3db8a676	0.09016125
20	0xbdaf1eb4	-0.08550778
21	0x4002be92	2.0428815
22	0xbdae7c90	-0.08519852
23	0x3e7921de	0.24329326
24	0x3e82bb43	0.25533494
25	0xbd0497d0	-0.032371342
26	0x3e04047d	0.12892337
27	0xbd4302e8	-0.047610193
28	0xbd0def72	-0.03465218
29	0x3d43cee6	0.047804736
30	0x406da5ee	3.7132525
31	0xbccd4728	-0.025058344
32	0xbdc68061	-0.09692455
33	0x3e584fce	0.21124193
34	0x3f0e3296	0.5554594
35	0xbfcf2ac4	-1.6184926
36	0xbe0850d2	-0.1331208
37	0xbdfca818	-0.12336749
38	0xbdcfeaf6	-0.10152237
39	0x3dca35ef	0.09873568
40	0x3fe14731	1.7599851
41	0x3dd76cd6	0.10518806
42	0x3f592be6	0.8483261
43	0x3e9b7fbd	0.30370894
44	0x3f51a1a6	0.8188728
45	0xbdc2b086	-0.095063254
46	0xbeb2674e	-0.3484444
47	0xbdef7302	-0.11691858
48	0x3e8d5b74	0.27608836
49	0x404f374d	3.2377503
50	0x3de2a9bd	0.11067531
51	0xbd935450	-0.07193816
52	0x40844065	4.1328607
53	0x40686f9f	3.6318128
54	0x400bff9b	2.187476
55	0x3e56824c	0.20948142
56	0x3f0667e9	0.52502304
57	0xbf77cda5	-0.96798164
58	0xc00db3c7	-2.2140977
59	0xbdbbcb10	-0.091695905
60	0xbcb4ac68	-0.022054866
61	0x40578b00	3.367859
62	0xbd1ca460	-0.038242698
63	0xbdf3b5fc	-0.11899945
64	0x3e35db87	0.17759524
65	0xbddacd71	-0.10683716
66	0x3d8f0a86	0.06984429
67	0xbe99a1e0	-0.30006313
68	0x3db6e510	0.08930409
69	0x3c245d34	0.010031987
70	0xbe92beba	-0.28661138
71	0xbf4aa68e	-0.7916039
72	0x3d164c4a	0.03669385
73	0x3df069d2	0.117389336
74	0xc021741a	-2.5227113
75	0xc0b5e65d	-5.6843705
76	0xc07b703d	-3.9287255
77	0xbdd5c18c	-0.10437307
78	0xbf2de3f7	-0.6792597
79	0xc0b1cfff	-5.55664
80	0x3e8162b5	0.2527062
81	0x3e12249e	0.14271781
82	0x3e64bcff	0.22337721
83	0xbc25a8d5	-0.0101110535
84	0xbd929b93	-0.0715858
85	0xc005dcbc	-2.0915976
86	0x3e0e3b9b	0.13889925
87	0xbe449d77	-0.19200693
88	0xbecd6817	-0.40118477
89	0xbd9975ea	-0.074931934
90	0x3bb96c0f	0.0056586335
91	0xbd7c0368	-0.061526686
92	0xbca75516	-0.020426314
93	0xbc53016d	-0.012878758
94	0xc05a6c28	-3.4128513
95	0x3dd20cc8	0.10256344
96	0x3e0fb3ed	0.1403348
97	0xbe5f6e07	-0.21819316
98	0xbef086d1	-0.46977857
99	0x3fd11d29	1.6337024
100	0xbda1ec39	-0.07906384
101	0xbdf91ffe	-0.12164305
102	0x3d3e4a04	0.046457306
103	0x3d05001b	0.032470804
104	0xbfe6d68d	-1.8034226
105	0xbc1fcaa0	-0.009752899
106	0xbf4cbb08	-0.7997289
107	0xbf0460c5	-0.5171016
108	0xbf3f0e25	-0.7463096
109	0xbcd93400	-0.026514053
110	0x3e816bb9	0.25277498
111	0xbd75260c	-0.059850737
112	0xbea06f26	-0.313348
113	0xc03489dc	-2.8209143
114	0xbddfe7f0	-0.109329104
115	0x3d07ab64	0.033122435
116	0xc065f4e8	-3.593073
117	0xc0673d58	-3.6131191
118	0xc0067922	-2.1011434
119	0xbd77a17a	-0.06045673
120	0xbf42dac1	-0.7611504
121	0x3f8d235a	1.1026413
122	0x400cd94f	2.2007635
123	0x3d06b2dc	0.032885417
124	0x3daba0f4	0.08380309
125	0xc02fe71f	-2.7484815
126	0xbc9ce810	-0.019153625
127	0x3cd48928	0.025944307
128	0x3d05ad45	0.032635946
129	0xbd5197c5	-0.05117013
130	0x3dabecb6	0.083947584
131	0xbe9f5367	-0.31118318
132	0xbda1fe76	-0.07909863
133	0x3cdafbf9	0.026731478
134	0xbef43008	-0.47692895
135	0xbf5ae450	-0.8550463
136	0xbdd7fa79	-0.10545821
137	0xbcfd3b88	-0.030912176
138	0xc01dd2fa	-2.466002
139	0xc0b73470	-5.725151
140	0xc080ee41	-4.0290837
141	0xbdcd5e8c	-0.10027799
142	0xbf375731	-0.7161742
143	0xc0b307a0	-5.594681
144	0x3e3ae38a	0.18250862
145	0x3dcf52ca	0.10123213
146	0x3d4c1203	0.049821865
147	0x3c34d9f4	0.011038292
148	0x3cfe5d97	0.031050486
149	0xc00c3bfe	-2.1911616
150	0x3cb47532	0.02202854
151	0xbe3dadd3	-0.1852334
152	0xbeff8619	-0.49906996
153	0xbd891404	-0.06693271
154	0x3df77795	0.12083355
155	0xbd774db4	-0.060376838
156	0xbd234ff5	-0.039871175
157	0x3d787c4a	0.060665406
158	0xc052c4f1	-3.2932703
159	0x3d8c43d0	0.06848872
160	0x3e109432	0.14119032
161	0xbe157363	-0.14594798
162	0xbf16c71b	-0.5889756
163	0x3fd939e1	1.6970788
164	0x3df08691	0.117444165
165	0xbc3d4990	-0.011553183
166	0xbd96db00	-0.0736599
167	0x3e6607de	0.22463939
168	0xbfe346a5	-1.7755934
169	0xbd91c090	-0.071168065
170	0xbf604925	-0.8761161
171	0xbf00ea10	-0.5035715
172	0xbf3956c5	-0.72398025
173	0x3ce2acf0	0.027670354
174	0x3ea8d0c3	0.32971773
175	0xbdc225ae	-0.09479843
176	0xbea9382c	-0.33050668
177	0xc03c526f	-2.9425313
178	0x3cc0801f	0.023498593
179	0x3d93b11e	0.07211517
180	0xc06a9774	-3.665494
181	0xc06c15e9	-3.6888373
182	0xc015d0d8	-2.3408718
183	0xbe45f14d	-0.1933033
184	0xbf2a2271	-0.66458803
185	0x3f8bd912	1.092562
186	0x400b5548	2.1770802
187	0xbdeb0900	-0.11476326
188	0x3dab2a5e	0.0835769
189	0xc03eac0e	-2.9792514
190	0x3d3fba2c	0.046808407
191	0x3dd8a388	0.10578066
192	0xbda2cb65	-0.07948951
193	0x3e586567	0.21132432
194	0xbe6ebbe0	-0.23313856
195	0x3d7baafd	0.061442364
196	0x3d955010	0.07290661
197	0xbe0e0c95	-0.13871987
198	0x3d71d6a9	0.059042607
199	0x3df0ec7b	0.11763855
200	0x3dc47670	0.09592903
201	0x3d7b233c	0.0613129
202	0x4083e38e	4.1215277
203	0x40d85efb	6.7615943
204	0x40ad761c	5.4206676
205	0x3c5d8350	0.013520077
206	0x3f192036	0.59814775
207	0x40d7f7f1	6.7490163
208	0xbdcaebd0	-0.09908259
209	0x3e21b99c	0.1579346
210	0xbd0d3824	-0.034477368
211	0xbe2d3994	-0.16916496
212	0xbe3f686c	-0.18692178
213	0x403d894a	2.9615045
214	0xbe9b4949	-0.3032935
215	0x3ded0ca6	0.11574678
216	0x3ec1932f	0.37807605
217	0x3d1f83f4	0.0389442
218	0xbdb4d8bb	-0.088304006
219	0xbd484e44	-0.048902765
220	0x3d2a4b8e	0.04157596
221	0xbe2d2560	-0.16908789
222	0x4088d2ae	4.2757177
223	0xbd77dda0	-0.060514092
224	0xbe426c3e	-0.18986604
225	0xbe04eb48	-0.12980378
226	0x3fa0a196	1.2549312
227	0x3ff1cbba	1.8890297
228	0xbe68e5a4	-0.22743851
229	0xbd3b44fc	-0.045720086
230	0xbdbfe996	-0.09370725
231	0x3c078203	0.008270743
232	0x3f94fb79	1.1639243
233	0x3ca61de0	0.020277917
234	0x3e267c2f	0.1625831
235	0x3f9086ac	1.1291099
236	0x3f078f15	0.529527
237	0x3d02590c	0.031823203
238	0x3ed6b189	0.41932324
239	0xbc817398	-0.01580219
240	0x3ce98526	0.028505873
241	0x40692fe8	3.643549
242	0xbe55473d	-0.20827956
243	0x3da1cbee	0.079002246
244	0x40919b29	4.5501904
245	0x409ba085	4.8633447
246	0x404b8731	3.1801264
247	0x3e000ecf	0.12505649
248	0x3ecf5908	0.40497613
249	0x3f0802dd	0.5312937
250	0x3dc0b108	0.09408766
251	0x3dc7d55e	0.097574934
252	0x3df62396	0.12018506
253	0x406e6720	3.7250443
254	0xbdbac11c	-0.09118864
255	0x3dcd63aa	0.10028775

mods.1.bias f4 [64]
0	0x3d9cd752	0.076582566
1	0x3dba15af	0.09086167
2	0xbbfb5efa	-0.007671234
3	0xbd79f0fc	-0.061020836
4	0x3d5aef4d	0.05345087
5	0xbd0aef86	-0.033919834
6	0x3cc556a0	0.024089158
7	0x3d11ddcb	0.03561191
8	0x3c92eae7	0.017934276
9	0x3b847f9b	0.004043532
10	0xbd4d8737	-0.05017778
11	0xbd87fb6a	-0.0663975
12	0x3e0a8aea	0.13529554
13	0x3d8a665d	0.067578055
14	0x3d108e10	0.03529173
15	0x3d1b6b94	0.03794439
16	0xbd2f8bc8	-0.042857915
17	0x3e13d66d	0.14437266
18	0xbc4b1090	-0.0123940855
19	0xbd3a6c9c	-0.045513734
20	0x3da5743d	0.08078811
21	0xbd5a5f9e	-0.053313844
22	0xbc83ac12	-0.01607326
23	0x3ad8fef0	0.001655547
24	0x39d77c08	0.00041100406
25	0x3d8b5442	0.0680318
26	0xbdda9fb0	-0.10674989
27	0xbd139b38	-0.0360367
28	0xbd573148	-0.052537233
29	0x3e1ef771	0.15524079
30	0x3d8f6fa2	0.07003714
31	0xbdcf8a78	-0.10133833
32	0x3d466ee0	0.048445582
33	0x3d161555	0.036641438
34	0x3ebce587	0.36893865
35	0x3dc82ef9	0.09774584
36	0xbd4a2f4a	-0.049361505
37	0x3dec721b	0.115452014
38	0xbcb725e0	-0.022356927
39	0x3d36eced	0.044659544
40	0x3da4ae6f	0.08041083
41	0x3e0e86f6	0.13918671
42	0x3d94504f	0.0724188
43	0xbdeab386	-0.11460023
44	0xbd558ca1	-0.052136067
45	0x3e12d116	0.14337572
46	0xbbbe4d62	-0.0058075646
47	0xbd92fa52	-0.07176651
48	0xbdcc0de2	-0.099635854
49	0xbd8d50be	-0.06900166
50	0xbe0a7998	-0.13522947
51	0x3ead46af	0.3384299
52	0x3d4c8e9c	0.04994069
53	0x3da559d0	0.08073771
54	0x3dd5dda7	0.104426675
55	0xbc2fbabe	-0.010725675
56	0x3d9f69fe	0.07783888
57	0x3d92538a	0.0714484
58	0xbddcce70	-0.10781562
59	0x3db96055	0.09051577
60	0xbd5db908	-0.054131538
61	0x3e0f9573	0.14021854
62	0xbd12dc8f	-0.035854872
63	0x3d79405e	0.0608524

mods.2.weight f4 [1, 64]
0	0xc00ee1a2	-2.2325215
1	0x40287054	2.631856
2	0x401972a1	2.3976214
3	0xc0bcc492	-5.8989954
4	0x400096a0	2.0091934
5	0x3d87d21c	0.06631872
6	0xbd8550d0	-0.065095544
7	0xc046c153	-3.1055496
8	0xc0514100	-3.2695923
9	0xc04d8684	-3.2113352
10	0xc07a140c	-3.9074736
11	0x3c192140	0.009346306
12	0xc02239c2	-2.5347753
13	0xc02c6879	-2.6938765
14	0x40184984	2.379487
15	0x40089c0a	2.1345239
16	0xc04d655a	-3.209311
17	0xc0757bab	-3.835673
18	0xbd9682e6	-0.07349186
19	0xbd34a074	-0.044098333
20	0xc06e4811	-3.7231486
21	0x40122129	2.283274
22	0xc08b576b	-4.354421
23	0x3d1db07e	0.038498394
24	0x4006edcd	2.1082642
25	0xbdbe720a	-0.09299095
26	0xbd871968	-0.06596643
27	0xbdca4664	-0.09876707
28	0x3d08a344	0.033358827
29	0x40187337	2.3820322
30	0xc058eff2	-3.389645
31	0x3d8bc6a0	0.06824994
32	0x3d5473e8	0.05186835
33	0xbfd49f92	-1.6611197
34	0xc00baf53	-2.182576
35	0xc075a76f	-3.8383443
36	0xbfde9d5e	-1.7391775
37	0x400df761	2.2182238
38	0xbc5c4890	-0.013445035
39	0xc08374fb	-4.10803
40	0x4019aefd	2.4013054
41	0xc073c945	-3.8091595
42	0xbfd1847c	-1.6368556
43	0x4015e895	2.3423207
44	0x3dc80c98	0.09768027
45	0x4003d960	2.0601425
46	0xbfe43f73	-1.7831863
47	0x3c97ab88	0.01851441
48	0xbde0d3c6	-0.109778926
49	0xbcc74010	-0.02432254
50	0xc00757a0	-2.1147232
51	0x4021b9f8	2.5269756
52	0xbda7bb5a	-0.08190031
53	0x3c5ce857	0.0134831285
54	0x40248853	2.5708206
55	0x3db11b9f	0.086478464
56	0xc01f2ba6	-2.487039
57	0x3de9e21a	0.114200786
58	0xbdf1dece	-0.11810075
59	0xc0733c55	-3.8005574
60	0x400c2229	2.189585
61	0x4020231c	2.502143
62	0x40160468	2.344019
63	0xc0668813	-3.6020553
