models/sim_vs_real_5k_model.pt (torch, 6679 bytes, 5 tensors)

mods.0.weight f4 [32, 2]
000000 41 cd ec 3e b7 1a 5b 3f bd 57 8f bf 96 44 04 bf
       0.46250346 0.8558764 -1.1198651 -0.51667154
000010 5d 5f 34 bf cb b7 08 3f 56 91 e7 be cb 5b 1d 3f
       -0.7045801 0.53405446 -0.4522807 0.6146819
000020 57 ca 58 3f ab 3b 52 be 90 bd 39 bf 41 de ce be
       0.84683746 -0.20530574 -0.72554874 -0.4040394
000030 1e 4f 27 3e 2f 20 bf bf a2 30 fd be f8 88 59 be
       0.16338775 -1.4931697 -0.49451166 -0.21243656
000040 a1 5f 42 be 44 23 93 3f 80 d1 2b bd d0 b3 8d bd
       -0.18981792 1.1495137 -0.04194784 -0.06919062
000050 c2 47 21 bf aa 1d 1f 3f 9f 8d 84 3e 35 0d a6 bf
       -0.6300012 0.6215464 0.25889298 -1.297278
000060 f0 da 54 bf 1a b6 a0 3f 1c 03 a4 3e 3f 58 ab 3f
       -0.8314657 1.2555573 0.32033622 1.3386306
000070 11 2c b3 be c2 f6 db be b1 bd fb bf 79 8e bf 3a
       -0.34994557 -0.429617 -1.9667264 0.0014614604
000080 db 81 2b 3f 2e e7 e3 be 8a f0 5c bf 7b 1a 0f be
       0.6699502 -0.44512314 -0.86304533 -0.13974945
000090 88 d7 95 bd 6f ea f9 bf b2 f5 eb 3e fa 9e 32 bf
       -0.073165 -1.9524668 0.46085888 -0.6977383
0000a0 1c aa 93 bf f9 dc 79 3f c6 ea 76 3f 8d 39 62 3d
       -1.1536288 0.976028 0.96451986 0.055230666
0000b0 1a 68 f8 3e c6 20 fe be e2 d1 a5 3f 5b da 6d be
       0.48516923 -0.4963438 1.2954676 -0.23227827
0000c0 c0 be 56 3e 0a c6 b9 3e af 4f 8f 3f 95 54 08 bf
       0.20971203 0.36283904 1.1196193 -0.5325406
0000d0 75 ff 1a 3f 1f 6e a4 be d3 35 80 be 16 55 47 3f
       0.60546046 -0.32115266 -0.25041065 0.77864206
0000e0 57 85 37 3f 47 71 3c 3f f9 e6 63 3f 65 33 2d 3e
       0.71687835 0.7361035 0.8902431 0.16914137
0000f0 dc 68 7f 3f ad 90 6a be 06 0e 50 3e 6e 08 8e 3f
       0.9976938 -0.22906752 0.2031785 1.1096323

mods.0.bias f4 [32]
000000 21 cf ba bc 51 ce 37 3f d3 64 8e be 28 80 30 bf
       -0.022803845 0.7179919 -0.27811298 -0.6894555
000010 1c dc 0b 3f 7b 20 60 3f 4e 44 0d 3f a8 19 9e bd
       0.54632735 0.8754956 0.5518235 -0.07719737
000020 eb bb f7 be 1e 66 92 be 33 f3 e4 3e 85 2c 7c 3f
       -0.48385558 -0.28593534 0.44716796 0.9850543
000030 48 90 90 be 80 a0 11 3d 6b f9 72 3f b6 50 26 3f
       -0.28235078 0.035553455 0.9491183 0.64966905
000040 d4 6a 20 bf 33 69 3c 3f 52 46 fe 3e a7 4a fb be
       -0.62663007 0.7359802 0.49663025 -0.49080393
000050 0c 3a 06 3f 9a d4 49 3c bc 86 ea be 12 75 2d 3f
       0.5243232 0.012318755 -0.4580592 0.6775676
000060 1b e0 fb be c3 b0 bd be 96 90 04 bf 7b 39 71 3c
       -0.49194416 -0.3704892 -0.5178312 0.014723177
000070 db 75 f5 be a3 f6 d9 be cb c2 30 3f 5f 2e cc be
       -0.4794148 -0.4257098 0.6904723 -0.39879128

mods.1.weight f4 [32, 32]
000000 d5 0b 72 bd 79 b0 20 40 8a 17 96 3d 00 a7 81 3a
       -0.059093315 2.510771 0.073287085 0.0009891689
000010 44 89 19 3e 5c 3c 87 bd a6 de b8 3f e4 85 a5 bd
       0.14993769 -0.066033095 1.4442947 -0.08082178
000020 a8 94 a5 bf 6c 44 9c bd 27 9d 0e be 7f a0 35 3f
       -1.2935991 -0.07630238 -0.13927136 0.7094802
000030 3a e5 44 bf 52 c4 05 3d 85 04 9c 3d d5 81 a2 c0
       -0.7691227 0.03265793 0.076180495 -5.0783486
000040 db 52 95 bd 69 ae 98 be 76 e9 b2 c0 d1 95 16 be
       -0.07291194 -0.29820564 -5.5909986 -0.14705588
000050 ad 45 7b c0 75 79 4e 3e a2 76 0d be 2b f2 c9 3e
       -3.9261277 0.2016352 -0.13814786 0.39442572
000060 e6 62 80 bd d7 19 82 3e c5 4b 16 3e 1a 74 82 be
       -0.062688634 0.2541034 0.14677341 -0.25479203
000070 12 d7 27 bf 4c 45 25 3c dc 3e c2 3d cf e2 52 bf
       -0.65562546 0.010087322 0.09484646 -0.8237733
000080 22 2b 96 3e 8b 84 12 c0 aa f3 cd 3d 93 c6 f2 bd
       0.29329783 -2.2893398 0.10056241 -0.11854281
000090 71 e2 28 be 6c 16 3f be 9f 87 5a bf 40 26 f8 bd
       -0.1649263 -0.18660897 -0.8536319 -0.121166706
0000a0 d8 73 0a 3f 18 ca 50 bd 51 08 f3 3d 43 2a 9d bf
       0.54083014 -0.05097398 0.118668206 -1.2278522
0000b0 9e cb 22 3f 1a 6e 8a 3e 0d 9a e7 bd d1 9a 88 c0
       0.63591945 0.27037126 -0.1130868 -4.2688985
0000c0 dd 4b 0f 3e f4 80 88 3d 42 81 06 be f0 ea fa 3c
       0.13993783 0.06665221 -0.13135245 0.030629605
0000d0 41 d9 0b 3f 4f 77 32 bd 82 46 92 3d 32 d6 e5 bd
       0.5462838 -0.043570813 0.071423545 -0.11222495
0000e0 84 8d 03 be 6b 8f ad c0 0a e4 9c bd 93 8e 99 3e
       -0.12846953 -5.423757 -0.076606825 0.29991588
0000f0 7a 06 6c 3e 53 b1 3c bf ae 44 6f bd 20 b0 e1 3e
       0.23049346 -0.73708075 -0.058415107 0.44079685
000100 61 79 a8 bd b0 f1 e8 3c c8 13 b4 3c f5 57 18 3e
       -0.08226276 0.028435558 0.021982089 0.14877303
000110 5e 48 0b be 39 e6 90 bd 70 43 c5 3c 02 0b 07 be
       -0.13601825 -0.070751615 0.024080008 -0.13187793
000120 92 0c 07 be c2 06 1c be 4e 29 a7 bd c0 98 7a 3d
       -0.13188389 -0.15236953 -0.08162175 0.06118083
000130 3a 11 bf 3d 4f a4 04 3e 10 5a 29 be 4c 15 71 3d
       0.093294576 0.12953304 -0.16538262 0.0588582
000140 cb 8d 34 3e 0e a6 54 bd a6 ca fe 3d 91 d6 1f be
       0.17632215 -0.051916175 0.12440996 -0.15609194
000150 05 e8 1e 3e a2 62 ab 3d 70 a2 74 bc 5d a2 a7 bd
       0.15518196 0.08368422 -0.014931306 -0.08185265
000160 27 fa 01 3e 7b bb 20 be 80 1e 4f 3c 00 4f 62 3c
       0.12693082 -0.15696518 0.012641549 0.01381278
000170 26 04 22 be 38 4d d6 3c 58 5c 68 3d ea 03 b4 3d
       -0.15821895 0.026159868 0.05672869 0.08789809
000180 50 8b 3f 3e 01 15 da 3f ca 92 a8 3d 80 26 45 bb
       0.18705487 1.703766 0.08231123 -0.0030082762
000190 29 2e 6d bc 44 7c 98 be b2 ce ad 3f d8 a3 b0 bd
       -0.0144763375 -0.29782307 1.3578703 -0.08625001
0001a0 d6 1b 50 3f 22 96 c6 3d 89 8d 9f 3d 27 79 09 3e
       0.81292474 0.09696604 0.077906676 0.13425122
0001b0 42 58 3b 3f d3 b9 c6 3b 0f c0 24 bd 9a 11 a5 c0
       0.73181546 0.0060646324 -0.040222224 -5.1583986
0001c0 2c 82 4f bd 0a d5 f9 be 4e fc b3 c0 aa 7e 86 3d
       -0.05066125 -0.48795348 -5.624549 0.06567128
0001d0 7a f8 54 bf e5 5d b1 3e 00 3d 50 ba 5d d3 24 3e
       -0.83191645 0.34641948 -0.000794366 0.16096254
0001e0 c5 8e 1c 3e 8e ec 8c bf e6 43 a0 3d 3b 23 51 3d
       0.15288837 -1.1009691 0.078254506 0.05105899
0001f0 40 bd aa 3d 6a d2 ea be 2b f2 c9 3d dc 5b 4e bd
       0.08336878 -0.45863658 0.09860643 -0.050380573
000200 08 de 2f be 20 06 33 be 87 4b 2b 3e c8 a1 83 3d
       -0.17174542 -0.17482805 0.1672803 0.06427342
000210 80 b9 6a bb 75 65 1e be 88 b8 35 bd 50 88 1b 3c
       -0.0035816133 -0.1546839 -0.044365436 0.009492949
000220 df b0 c9 bd 90 aa c0 bd e0 09 63 3c d2 21 93 bd
       -0.098481886 -0.09407532 0.013857335 -0.07184185
000230 9d d7 18 be 95 d2 b1 bd da 1c d9 3d cc 75 20 be
       -0.14926 -0.086827435 0.10601206 -0.15669936
000240 b2 59 8f 3d 3a 79 c0 3d 82 a6 81 3d f7 71 ca bd
       0.0699953 0.09398122 0.06330587 -0.09885018
000250 e7 15 02 3e 42 9f 9e 3d 7e a9 d4 3d 36 3e ae 3d
       0.12703668 0.0774522 0.103838906 0.085079595
000260 a0 02 43 3c 96 64 0f be 5e eb 84 3d 64 1d 05 bd
       0.011902481 -0.14003214 0.06490205 -0.032498732
000270 30 3e a0 3c 1e 5c db 3d fd 1e 2b be 4c 58 32 be
       0.019560903 0.10710929 -0.1671104 -0.17416495
000280 f9 68 94 3d 7e 18 e5 3f 8e ca a8 3d 00 2b a8 3b
       0.072465844 1.78981 0.08241759 0.005132079
000290 92 c7 3a 3d 15 a7 7c be ab 81 b6 3f 0e 1b 17 be
       0.04560048 -0.24673112 1.4258322 -0.14756414
0002a0 65 f5 29 3f 86 04 d8 bd f3 e4 d1 3c 54 87 9f bb
       0.6639007 -0.10547738 0.025621867 -0.0048684273
0002b0 f9 a4 0d 3f 71 a8 1a 3e 92 56 25 be 97 44 b6 c0
       0.55329853 0.15103318 -0.16146305 -5.695873
0002c0 20 37 aa bb c2 24 82 be f6 2b b1 c0 d2 f0 d7 3d
       -0.0051945597 -0.2541867 -5.5366163 0.1054398
0002d0 3d 49 00 bf 9a bd 76 3d 74 b2 5b bd 9c 7a a8 3d
       -0.5011175 0.060239412 -0.053636983 0.08226511
0002e0 fc 63 6c 3d 10 c2 99 bf d1 52 09 3e 63 a8 27 3e
       0.05771254 -1.2012348 0.13410498 0.16372828
0002f0 9b 57 a6 3d 57 5d c9 be 0b 56 a9 3d 6f d6 64 3e
       0.08122178 -0.39329025 0.082683645 0.22347425
000300 80 7c 04 3d f9 20 e5 3f b1 91 f3 bd 72 26 8a 3d
       0.032345295 1.7900687 -0.11893023 0.06745614
000310 31 6a 9a bd 5d 95 ae be 8c 00 a4 3f 40 e9 3f bd
       -0.07539786 -0.3409833 1.2812667 -0.046853304
000320 49 7f 10 3f f0 1b 31 bc c3 48 41 3c 99 cc d2 3d
       0.5644422 -0.0108098835 0.011797133 0.1029293
000330 f1 c7 70 3f 89 b4 10 3d 11 8d fe bd af f4 ae c0
       0.94055086 0.03532842 -0.1242925 -5.4673686
000340 14 4f 86 3d f3 46 af be 9e ec b4 c0 f4 f8 44 3d
       0.06558052 -0.34233817 -5.653884 0.048088983
000350 0e da 49 bf 35 55 71 3e 20 7f 3e 3d 52 c5 4f 3e
       -0.7884835 0.2356766 0.046507955 0.20290115
000360 e2 85 e4 bd 24 ae a2 bf e6 9f 2d be 41 41 13 3e
       -0.111583486 -1.2709394 -0.16955528 0.14380361
000370 2a 7f 25 be 68 42 e7 be e9 2b 71 3e 45 6b 50 3e
       -0.1616179 -0.4516785 0.23551907 0.2035342
000380 8a 95 eb 3d e0 ff a3 3b b9 8c ec bd bc 21 2c be
       0.11503132 0.005004868 -0.11550278 -0.16809744
000390 b0 b3 c3 bd 70 e2 1b 3c 76 e4 98 3d 1c ad f2 bd
       -0.09555757 0.009514436 0.074654505 -0.11849424
0003a0 30 99 f8 bd e1 60 02 3e d0 25 3a 3c 50 d0 c3 bd
       -0.12138593 0.12732269 0.011361554 -0.09561217
0003b0 53 5e 25 3e 44 b6 05 3d cb 3d ab bd d0 ac 0b 3c
       0.16149263 0.032644525 -0.083613954 0.008525088
0003c0 96 75 2c be 26 29 bf bd 4f da 1a 3e ac ea 6c 3d
       -0.1684173 -0.0933402 0.1512234 0.057840988
0003d0 42 11 e3 bd 34 7d 63 3d c0 02 8f bd 46 2c 01 be
       -0.11087276 0.055539325 -0.069829464 -0.12614545
0003e0 fa 29 1c be 27 1c 08 3e 16 8b bd 3d ea 9d ff bd
       -0.15250388 0.1329199 0.09255044 -0.124812916
0003f0 d5 b8 18 be 58 39 16 3d 6b 4d 01 be 9c 73 93 3d
       -0.14914258 0.03667578 -0.12627189 0.07199785

mods.1.bias f4 [32]
000000 29 bf ab 3e 80 02 e9 bd 80 ae bb bd a9 c6 02 3e
       0.3354428 -0.1137743 -0.091641426 0.12771095
000010 42 41 a3 bd 06 de a7 bd 91 c2 62 3d 00 a2 80 ba
       -0.07971431 -0.081966445 0.055361334 -0.0009813905
000020 84 6a fd bd c3 37 71 3e 90 c3 a2 bc bd f9 1d 3e
       -0.12373832 0.23556428 -0.019868642 0.15427299
000030 72 74 ec be 93 6a 1b bd 95 5a ad 3d ba 11 6c 3e
       -0.4618259 -0.037943434 0.08464543 0.23053637
000040 d0 35 04 3e 3b 5a 78 bd 38 d4 79 bd 08 11 8e bd
       0.12911153 -0.060632925 -0.060993403 -0.06936842
000050 11 e2 e2 3e 29 76 c1 3d 2a f1 d9 bd 5f c9 45 3d
       0.443131 0.094463654 -0.106417015 0.048287746
000060 07 c4 b8 bd 61 f2 7a bd 80 23 c9 3b a2 10 17 3e
       -0.09021764 -0.061266307 0.006138265 0.14752439
000070 c6 b6 f2 bd 12 b5 32 be 1f 22 06 be f0 02 08 3c
       -0.118512675 -0.17451885 -0.13098954 0.008301482

mods.2.weight f4 [1, 32]
000000 94 37 5a 40 b9 da ca 3f 91 57 1d 3e 61 82 25 40
       3.4096422 1.5847999 0.15365435 2.5860827
000010 90 9b 0e bd 2a 8a 2a 40 13 74 37 40 b1 4c 02 3e
       -0.034816325 2.6646829 2.8664596 0.12724568
000020 63 b2 bc bd 88 4d bc bf 60 c5 88 3d 0c 61 0f 40
       -0.09213712 -1.4711161 0.06678271 2.2402983
000030 59 d5 fb c0 f9 51 cf bf 14 45 49 40 9d 5d 13 c0
       -7.8697934 -1.6196891 3.1448412 -2.3025887
000040 91 55 22 40 ef 20 c4 bf 27 21 40 bc 98 cf 1c 40
       2.5364726 -1.532255 -0.011726654 2.4501705
000050 07 7c 63 c0 4d ce 31 be a3 a1 0a 3e 8b 76 1b 40
       -3.554445 -0.17363854 0.13538222 2.4291103
000060 5b fc 49 40 46 5c c3 bf 90 5a 05 bc 94 9d a7 bf
       3.1560276 -1.5262535 -0.008139268 -1.3094964
000070 17 0c ee c0 73 4f b9 bf 2f 08 2f be bd 2c 08 be
       -7.438976 -1.4477371 -0.17092966 -0.13298316
