models/sim_vs_real_2.5k_model.pt (torch, 6679 bytes, 5 tensors)

mods.0.weight f4 [32, 2]
0	0xbf15f30e	-0.58574
1	0xbe99e074	-0.30054057
2	0x3cb03694	0.0215104
3	0x40098080	2.148468
4	0xbf774105	-0.96583587
5	0x3fb866e7	1.4406403
6	0xbd11a480	-0.03555727
7	0xbf18dc29	-0.5971094
8	0xbf0d54f6	-0.55207765
9	0xbd4514e0	-0.04811561
10	0x3f6e068c	0.9297874
11	0xbe19379c	-0.1496262
12	0x3fa057db	1.2526811
13	0x3f5e6ae1	0.86881834
14	0x3ffd4725	1.9787337
15	0x3cbee934	0.02330456
16	0x3d4fe1f0	0.05075258
17	0xbeae3fda	-0.3403309
18	0xbebd69fd	-0.36994925
19	0xc03b4019	-2.9257872
20	0xbef3aece	-0.47594303
21	0x3eb04f0a	0.34435302
22	0x3e2a5ddc	0.16637367
23	0xbf1288dc	-0.5724008
24	0x3f957dfa	1.167907
25	0x3fac4728	1.3459215
26	0xbf990301	-1.1954042
27	0x3face401	1.3507081
28	0xbf98a7c4	-1.1926198
29	0xbfa11aa2	-1.2586253
30	0x3e46d40c	0.19416827
31	0x3dd6c038	0.104858816
32	0xbf0b208c	-0.5434654
33	0x3f028ea7	0.5099892
34	0xbf9139d2	-1.134577
35	0x3ec5661a	0.3855446
36	0xbe2d370c	-0.1691553
37	0xbee5fdd5	-0.4492022
38	0x3f8602e8	1.0469637
39	0x3f45df92	0.77294266
40	0xbedb2341	-0.42800334
41	0xbe45f088	-0.19330037
42	0x3ff4bc3b	1.9119943
43	0xbf968271	-1.1758558
44	0x3fc21051	1.5161229
45	0x3ea9ee11	0.33189443
46	0xbf024648	-0.5088849
47	0xbeeb7620	-0.4598856
48	0x3fd91270	1.6958752
49	0xbcf765ce	-0.030199911
50	0x3fc9f648	1.5778284
51	0x3e74795e	0.23874423
52	0xbf4c8504	-0.79890466
53	0x3e3cf4fe	0.18452832
54	0xbee8d67b	-0.45476136
55	0xbd8b6fe8	-0.06808454
56	0xbecdc60d	-0.40190163
57	0xbf15cf77	-0.5851969
58	0xbf05e06c	-0.52295566
59	0xbd4af7a0	-0.04955256
60	0xbe80958e	-0.251141
61	0xbec0a65e	-0.37626928
62	0xbe8940e3	-0.26807317
63	0xbe63f0b6	-0.22259793

mods.0.bias f4 [32]
0	0xbecf195a	-0.4044903
1	0xbf0114a8	-0.50422144
2	0x3ea5cfad	0.32385007
3	0xbf0ae017	-0.54248184
4	0xbe19b1a0	-0.15009165
5	0xbe484c39	-0.19560327
6	0xbf8b8b6a	-1.0901921
7	0x3f0ce382	0.5503465
8	0xbe48f6b4	-0.1962536
9	0x3f9507cd	1.1643006
10	0xbf09ed10	-0.53877354
11	0xbeb6b8ba	-0.3568781
12	0x3f13a791	0.5767756
13	0x3f11a3d9	0.56890637
14	0x3fac10b8	1.3442602
15	0xbe80c510	-0.25150347
16	0xbf2cfa76	-0.67569673
17	0x3f5c8770	0.8614416
18	0xbe581168	-0.2110039
19	0xbe58509e	-0.21124503
20	0xbef32bf2	-0.47494465
21	0x3f1ac064	0.60449815
22	0xbd648e24	-0.05579962
23	0x3e435860	0.19076681
24	0x3fa0fdc7	1.2577447
25	0x3db394e5	0.08768634
26	0x3f9b9cc8	1.2157221
27	0xbe985f83	-0.2976037
28	0x3c8c0c40	0.017095685
29	0xbe1b8cf0	-0.15190482
30	0xbef3056c	-0.47465074
31	0x3de76b11	0.11299718

mods.1.weight f4 [32, 32]
0	0xbe1bd1c7	-0.15216742
1	0x3f90dabd	1.1316754
2	0x3e166552	0.14687088
3	0x3dca0362	0.098639265
4	0xbe22ea98	-0.15909803
5	0xbf828faf	-1.0200099
6	0x3ed4abc7	0.41537306
7	0x3dfa01ab	0.122073494
8	0x3e33c3cb	0.17555158
9	0x3fa71723	1.3053936
10	0x3e304f5b	0.17217772
11	0x3cd072e8	0.025445417
12	0x3ec37dc2	0.38181883
13	0x3ed8f489	0.42374066
14	0xbf362a80	-0.711586
15	0x3d4ef664	0.050527945
16	0x3b979aa0	0.004626587
17	0xbe8e67ce	-0.27813572
18	0x3d848690	0.06470978
19	0x3f1e4390	0.6182184
20	0xbd2945f0	-0.041326463
21	0xbf1188fb	-0.5684964
22	0x3ebd0097	0.36914513
23	0xbde9cf08	-0.11416441
24	0x3e24480a	0.16043106
25	0x3e2cec0c	0.1688692
26	0xbdbf3d35	-0.09337846
27	0xbda1eddc	-0.07906696
28	0x3d5c166c	0.05373232
29	0x3d86517a	0.06558509
30	0xbe21b16c	-0.15790337
31	0x3d05c717	0.03266057
32	0x3c311870	0.010809049
33	0xbdac6ddb	-0.08419391
34	0x3c2060f0	0.009788737
35	0xbd9eaa61	-0.07747341
36	0xbde22dbc	-0.110438794
37	0xbd900d08	-0.070337355
38	0x3cb23aaf	0.021756498
39	0xbe2b7d02	-0.16746905
40	0xbc519ae0	-0.012793273
41	0xbd08fcaf	-0.033444103
42	0x3e29d345	0.16584499
43	0x3daa9e2e	0.08330952
44	0x3d3b9256	0.045793854
45	0xbe3113f7	-0.17292772
46	0xbe03408a	-0.12817588
47	0xbe0141c2	-0.12622741
48	0x3e23313f	0.15936755
49	0xbcdfaa51	-0.027302893
50	0xbd39d828	-0.04537216
51	0x3d879449	0.0662008
52	0x3c552730	0.013009831
53	0x3e027d9e	0.12743232
54	0x3c1d5268	0.009602167
55	0xbdadb0b2	-0.084809676
56	0xbdbb2e22	-0.091396585
57	0x3df5ea8f	0.12007629
58	0xbdb98d5d	-0.09060166
59	0x3debdd1a	0.11516781
60	0xbe18f8ee	-0.14938709
61	0x3d1a14c4	0.03761746
62	0xbdcfa945	-0.101397075
63	0xbe06d1de	-0.13165995
64	0x3b775b40	0.0037743598
65	0xbd468c40	-0.048473597
66	0xbd99c407	-0.075080924
67	0x3dcbd896	0.0995342
68	0xbcc2bff8	-0.023773178
69	0xbdfead4c	-0.124353975
70	0x3bd24200	0.006416559
71	0xbd9dee41	-0.07711459
72	0xbcca7938	-0.024716005
73	0xbd96754a	-0.0734659
74	0x3e145b03	0.14487843
75	0x3cbbe3e8	0.022935823
76	0xbe1ff214	-0.15619689
77	0xbcb3dac8	-0.021954909
78	0xbc8b1b50	-0.016980797
79	0x3d2eb630	0.042654216
80	0xbdf88f20	-0.12136674
81	0xbdfd2a2c	-0.12361559
82	0x3db8966a	0.09013064
83	0xbe13c1fa	-0.14429465
84	0xbde89e7d	-0.11358354
85	0xbb237c40	-0.0024945885
86	0xbc8580e8	-0.016296819
87	0xbdba684b	-0.091019236
88	0xbd46655c	-0.048436508
89	0xbe14dea0	-0.1453805
90	0xbe33cacc	-0.1755783
91	0x3e1d95cb	0.15389173
92	0x3da6bafe	0.08141135
93	0x3d44f008	0.048080474
94	0x3e0811d5	0.13288052
95	0xbbd43820	-0.006476417
96	0x3d115b6c	0.035487577
97	0x3cd73950	0.026272446
98	0x3c87aa58	0.016560718
99	0x3ca414e0	0.020029485
100	0xbdb21c2e	-0.08696781
101	0xbd986440	-0.07440996
102	0x3e22e05b	0.15905897
103	0xbe14555c	-0.14485687
104	0x3de298ee	0.11064325
105	0x3d86b09a	0.06576653
106	0x3e0578d1	0.13034369
107	0x3df39ade	0.11894773
108	0xbe215524	-0.15755135
109	0xbdadb4d1	-0.084817536
110	0x3e00405d	0.12524553
111	0x3dd501ee	0.10400759
112	0xbdb32744	-0.08747724
113	0x3d7c4e0c	0.06159787
114	0x3dd13e2a	0.10216935
115	0x3d8790c8	0.06619412
116	0xbd68a5ba	-0.056798674
117	0x3e0a270f	0.13491462
118	0xbdb43548	-0.08799225
119	0xbd9f1919	-0.07768459
120	0xbe2f5de3	-0.17125659
121	0xbd800e06	-0.06252675
122	0xbdf67e90	-0.12035859
123	0xbd67f016	-0.05662545
124	0x3dca9376	0.09891407
125	0x3e268fab	0.16265742
126	0xbe07d10e	-0.13263342
127	0x3d960b02	0.07326318
128	0x3d8352ea	0.06412299
129	0xbf6623f3	-0.89898604
130	0xbea8ddc8	-0.32981706
131	0xbdbe8500	-0.093027115
132	0x3c87ad58	0.016562149
133	0x3f7b7975	0.98232204
134	0xbf04b99c	-0.5184572
135	0x3f062485	0.52399474
136	0x3d773c98	0.06036052
137	0xc0123ba7	-2.284891
138	0x3da726ca	0.08161695
139	0xbd809fc6	-0.06280474
140	0x3e72951e	0.23689696
141	0xbf77e785	-0.96837646
142	0xbecc7a36	-0.3993699
143	0x3e239feb	0.15978973
144	0xbdab3354	-0.083593994
145	0xbf5483f7	-0.8301386
146	0x3d2ac810	0.0416947
147	0x3e3859b9	0.18002976
148	0xbcb250e0	-0.02176708
149	0x3f601fe6	0.87548673
150	0x3ec765c6	0.38944834
151	0xbde7cf6d	-0.1131886
152	0x3ea69ea6	0.32542914
153	0x3e8902a3	0.26759824
154	0x3e74b1c6	0.2389594
155	0xbdf1f644	-0.118145496
156	0x3d8b84d6	0.06812446
157	0xbdf5ee26	-0.12008314
158	0x3db200a2	0.08691527
159	0xbdc88d90	-0.09792626
160	0xbbfb40e0	-0.007667646
161	0xbf208835	-0.62707835
162	0xbec49c63	-0.38400564
163	0x3c072b70	0.008250102
164	0xbd9f7141	-0.07785273
165	0x3f51956f	0.8186864
166	0xbf2511ea	-0.6448046
167	0x3f141f71	0.57860476
168	0xbd0f7d4c	-0.0350316
169	0xc009b666	-2.1517577
170	0xbdcedef9	-0.101011224
171	0x3dcfc88a	0.10145672
172	0xbd9da5ee	-0.07697664
173	0xbf61a0ff	-0.88136286
174	0xbed7ee51	-0.42174008
175	0xbcfba138	-0.030716524
176	0xbe1bde50	-0.15221524
177	0xbf566213	-0.837434
178	0xbdb0c034	-0.0863041
179	0x3dd479d0	0.103747964
180	0x3e1e58bd	0.15463538
181	0x3f575ca2	0.8412572
182	0x3e7aaedd	0.24480768
183	0x3e246b77	0.1605662
184	0x3f130aa4	0.5743811
185	0x3e693f5b	0.22778074
186	0x3da8c5a5	0.08240823
187	0xbdfb6925	-0.12275914
188	0x3c51cd90	0.012805358
189	0x3db016fe	0.085981354
190	0xbe2956a8	-0.16536963
191	0xbcbacc94	-0.022802629
192	0xbe320cc1	-0.17387678
193	0xbdf4a771	-0.119459994
194	0xbc23a030	-0.009986922
195	0xbdaf6e51	-0.08565963
196	0x3de4549a	0.11148949
197	0x3df4303e	0.11923264
198	0x3cc27f30	0.023742288
199	0xbd5b1048	-0.053482324
200	0xbe17f4d5	-0.1483949
201	0xbd83e966	-0.064410016
202	0x3cc47850	0.02398315
203	0x3e15b109	0.14618315
204	0xbe1d3b2b	-0.15354602
205	0xbce148d0	-0.02750054
206	0x3e04e031	0.12976147
207	0x3e28e11d	0.16492124
208	0x3dba3626	0.09092359
209	0x3d96d24a	0.07364328
210	0x3cefd7e8	0.029277757
211	0xbe26fcde	-0.16307399
212	0xbd3d4920	-0.046212316
213	0xbe2e5766	-0.17025527
214	0xbdd349b6	-0.103167936
215	0xbdda26df	-0.10651945
216	0x3e0d4d2d	0.13798971
217	0x3e03ec61	0.1288314
218	0x3dd03c4e	0.10167752
219	0x3e147e57	0.1450132
220	0x3d85be8e	0.06530486
221	0x3dc3c752	0.09559502
222	0x3d265ca4	0.040615693
223	0xbc16fc90	-0.009215489
224	0xbd899b1c	-0.06719038
225	0x3d752984	0.059854046
226	0x3cf6e238	0.030137166
227	0x3e0c1965	0.13681562
228	0xbe07854a	-0.1323444
229	0xbda12617	-0.07868593
230	0xbda031fc	-0.07822034
231	0xbe217649	-0.15767778
232	0xbd6b28d6	-0.05741199
233	0xbceb6360	-0.02873391
234	0x3e0dc495	0.13844521
235	0xbe2e055f	-0.16994236
236	0x3e1907f9	0.14944448
237	0x3d236b0c	0.03989701
238	0xbc421b80	-0.011847377
239	0xbe0348dd	-0.12820764
240	0xbdaf9f08	-0.08575255
241	0xbe19aca7	-0.15007268
242	0x3da4edce	0.0805317
243	0x3d9e6b5a	0.077353194
244	0xbddef64d	-0.10886822
245	0xbe1d01b0	-0.15332675
246	0xbc632560	-0.013863891
247	0x3def85f6	0.11695473
248	0x3d09bba4	0.033626214
249	0xbe094f81	-0.13409235
250	0xbe2ce570	-0.16884398
251	0x3ddbeaee	0.10738169
252	0x3d942f38	0.07235569
253	0xbe215c02	-0.15757754
254	0xbe160618	-0.14650762
255	0x3cfaea18	0.030629203

mods.1.bias f4 [32]
0	0x3c21451f	0.00984314
1	0xbe51758f	-0.20455001
2	0xbd4c2adc	-0.04984556
3	0xbe0fc720	-0.14040804
4	0x3ea499ff	0.3214874
5	0x3ee9b501	0.45645908
6	0xbd79c3de	-0.06097781
7	0xbdec968e	-0.115521535
8	0x3d9137ea	0.07090743
9	0xbe98fb24	-0.29879105
10	0xbdf5ad67	-0.119959645
11	0x3f575992	0.8412105
12	0xbe27f4aa	-0.16401926
13	0x3e9a74c3	0.30167207
14	0xbdad4edd	-0.084623076
15	0xbde5eacb	-0.11226424
16	0xbe7a0ca8	-0.2441889
17	0xbe2c0d8f	-0.16802047
18	0xbe061351	-0.13093306
19	0xbe1f631b	-0.1556515
20	0x3df6c9e2	0.12050225
21	0xbe5ffbd5	-0.2187341
22	0x3e20d653	0.15706758
23	0x3e16c2df	0.14722775
24	0xbdc49df3	-0.09600439
25	0xbd5122db	-0.05105863
26	0xbdf86c9d	-0.12130091
27	0xbdbf5ee6	-0.09344272
28	0x3f28f9c1	0.66006094
29	0xbd8034b3	-0.062600516
30	0xbe13cdbc	-0.1443395
31	0x3e9c528b	0.30531725

mods.2.weight f4 [1, 32]
0	0x3f862c97	1.0482358
1	0x3df591c4	0.11990693
2	0x3d9d0da6	0.07668619
3	0x3d925134	0.071443945
4	0xbfbf6054	-1.4951272
5	0xbfd8545c	-1.6900744
6	0xbd83664e	-0.064159974
7	0xbd515ff0	-0.051116884
8	0x3e1963e5	0.14979513
9	0x3f3e71e5	0.7439254
10	0x3dbd2c34	0.09236947
11	0xc06718bc	-3.6108847
12	0xbe20b765	-0.1569496
13	0xbfcaff53	-1.5859169
14	0x3e16446f	0.14674543
15	0x3dcbf072	0.09957971
16	0xc1482021	-12.507844
17	0x3d93a538	0.07209247
18	0x3d6a29c4	0.057168737
19	0x3f7ecb89	0.9952932
20	0xbd64a2ea	-0.05581943
21	0xc17ba52b	-15.727824
22	0xc15d2cf0	-13.823471
23	0xbfc88f38	-1.5668707
24	0x3f9dbb83	1.2322849
25	0xbd917596	-0.07102506
26	0x3f6aceb0	0.9172163
27	0x3c9d6848	0.019214764
28	0x40bde87a	5.9346285
29	0x3f7f7372	0.9978553
30	0x3e05dd51	0.13072707
31	0xbfc9d04d	-1.5766693
