models/sim_vs_real_1k_model.pt (torch, 6679 bytes, 5 tensors)

mods.0.weight f4 [32, 2]
000000 f9 f4 a9 3d 1c c2 38 3f 6e 83 6f 3d 18 f0 4c 3f
       0.08298678 0.7217119 0.05847495 0.80053854
000010 37 8f 2c 3f fe 92 88 bf df 29 c7 3f 4f 23 20 3f
       0.6740603 -1.0669858 1.5559653 0.62553877
000020 aa c8 ca be 3d 83 30 bf 25 99 cd 3f fe e2 f0 be
       -0.3960622 -0.68950254 1.6062361 -0.4704818
000030 6c 9c 7f bf bc c3 00 bf db ba 63 3e 12 7b c1 bf
       -0.99848056 -0.50298667 0.22239248 -1.5115683
000040 d8 bc c5 3d af 0b e4 be a8 8b 4d bb ff ba b2 bf
       0.0965516 -0.44540164 -0.003136376 -1.3963317
000050 46 ad d4 3e 6d f4 1d bf 95 68 59 bf 97 47 08 3f
       0.41538447 -0.6170109 -0.84925205 0.5323424
000060 32 e7 a5 3e cb 57 a4 3e 0f e4 98 bf 2c a2 96 3f
       0.3240295 0.3209823 -1.1944598 1.1768241
000070 52 4c 1d bf 02 23 c7 3e 40 d9 ba bc 00 5e 85 3e
       -0.6144458 0.38893896 -0.022808671 0.2604828
000080 dd 9e e9 3f 4f 85 2a bf 06 73 57 bd 0f 8d 6e bf
       1.8251606 -0.6660966 -0.05259993 -0.9318399
000090 3b 33 af 3f cb f1 64 3d 10 7e 85 3e d3 87 25 bf
       1.3687509 0.055894654 0.2607274 -0.64660376
0000a0 b3 cd e7 3f be f7 8d bd bc 35 1f bf f2 d8 ee be
       1.810965 -0.06932019 -0.6219137 -0.4664989
0000b0 91 f7 e2 3f d1 4e be bb b6 52 a3 bf 9f 85 f9 3e
       1.7731801 -0.0058077355 -1.2759616 0.48734757
0000c0 9c d0 fa be 2c 0c c0 be 68 7d f9 bd 0d ea 0d 3f
       -0.4898728 -0.37509286 -0.121821225 0.5543526
0000d0 b9 2a 08 3f b1 1f 17 be ca 07 93 3e da 56 83 3e
       0.5319019 -0.14758183 0.2871688 0.256522
0000e0 25 28 40 3b 5c 32 80 bf e8 b5 68 3e 60 8e 07 be
       0.0029320803 -1.0015368 0.22725642 -0.13237906
0000f0 62 ae 30 bf f9 e1 d5 be a0 ee 96 3d b4 44 2d bf
       -0.6901609 -0.41773966 0.07369733 -0.6768296

mods.0.bias f4 [32]
000000 7e 2c 12 3f 27 b9 df 3d 59 d6 96 3e 4b 07 24 bf
       0.5709914 0.10923987 0.2946041 -0.6407363
000010 ca d0 12 bf a8 6c 12 be 29 9a 37 3f 18 7c ec 3e
       -0.57349837 -0.14299262 0.71719605 0.46188426
000020 26 c2 8a be 8f 82 86 3f 3c f0 3d be ee bd 4f 3e
       -0.27101249 1.0508593 -0.18548673 0.20287296
000030 8c cc 3b 3f 37 b7 07 3f b3 e1 b3 be 3c 59 de be
       0.7335899 0.5301394 -0.35133132 -0.43427455
000040 75 06 10 3d 70 98 9c 3f cb 47 fd be 40 5c 0e bf
       0.035162408 1.223402 -0.49468836 -0.5560951
000050 f3 95 19 3d 10 4b 57 bd 28 48 8b be f8 10 47 3f
       0.03749652 -0.05256182 -0.27203488 0.7776027
000060 bd 96 1b bf 86 88 ea be b3 9d 8a 3f 3d ff de be
       -0.60776883 -0.45807284 1.0829376 -0.43554106
000070 a9 06 40 3f dd 9f 80 be cc bb 23 bf c0 ca 02 3d
       0.7501016 -0.25121966 -0.6395843 0.03193164

mods.1.weight f4 [32, 32]
000000 c2 4c 02 be c2 77 c2 3d 92 88 ea bd 8c 56 0d be
       -0.12724593 0.09495498 -0.1145183 -0.13802546
000010 d0 e7 43 bc 9f 6f af bd c8 46 b1 bc e2 5b ff 3d
       -0.011957124 -0.08566212 -0.021640196 0.12468697
000020 24 be 4f bd 85 e5 0b 3e ca 2a bc 3d 6b 66 18 be
       -0.05071844 0.13661774 0.09187849 -0.1488282
000030 99 33 25 3e b6 ee 0e be f0 db fb 3c 17 14 86 bd
       0.16132964 -0.13958248 0.030744523 -0.065468006
000040 93 e4 11 be e8 7e f3 bc 0e d1 de 3d 6e 15 92 3d
       -0.1424735 -0.0297236 0.10879718 0.07132994
000050 ce 76 10 be b0 54 2a be 94 45 1c bd 68 dc 09 3d
       -0.1410782 -0.16633868 -0.038152292 0.03365746
000060 40 67 31 bc a0 48 c9 bb 8a 27 90 bd b1 6f 2c 3e
       -0.010827839 -0.006142691 -0.070387915 0.16839482
000070 1c 87 28 3d f4 7c 20 bd 27 15 03 3e 5a 51 95 3d
       0.041144475 -0.039181665 0.12801038 0.07290907
000080 a8 6d 21 be 92 b0 c8 3d 6e fb 8b 3d 13 f9 01 3e
       -0.15764487 0.09799303 0.06835066 0.1269267
000090 bb a8 2d be d6 6a b4 3d 00 2b 04 be 06 66 97 bd
       -0.16958897 0.0880944 -0.12907028 -0.07392506
0000a0 97 8a 0c 3e 10 04 25 bd 18 c7 c4 3c b5 1e 0e 3e
       0.13724743 -0.040287077 0.024020717 0.13878901
0000b0 7a e8 16 be 48 c8 88 3c 2c 0f 16 bd 28 48 ec bd
       -0.1473712 0.016697064 -0.036635563 -0.115372
0000c0 aa a9 96 3d 2e ee 16 be 89 98 c6 bd e1 8c 0b be
       0.073565796 -0.14739296 -0.096970625 -0.1362796
0000d0 24 07 40 3d 44 85 19 bd 80 55 90 bb fe 91 ec bd
       0.04688181 -0.037480608 -0.0044047236 -0.11551283
0000e0 40 a3 d9 bd 8c 4d ab bd 00 64 48 bb 40 df bd bd
       -0.106268406 -0.083644 -0.0030577183 -0.09271097
0000f0 d2 66 15 be bf df 29 be 11 3a be bd b0 2d 26 bd
       -0.14590004 -0.16589259 -0.09288419 -0.040570915
000100 38 b4 2e bd d0 d0 a5 bc f0 53 3e bd dc e3 cf bd
       -0.04265234 -0.020241171 -0.046466768 -0.101508826
000110 43 df 1f 3e a8 cd 47 3d b1 75 eb bd 9c 1c 6c 3d
       0.15612511 0.048780113 -0.11497057 0.05764447
000120 56 3c e6 3d d8 e3 42 3d d1 78 2c 3e e9 66 2e be
       0.11241977 0.04758057 0.16842963 -0.17031445
000130 01 48 25 be fc 5e 14 be aa 6d 9a bd 6c 81 24 be
       -0.16140749 -0.14489359 -0.07540448 -0.16064996
000140 d8 e7 14 3d 28 fd 4b bd c6 f8 81 3d 22 48 bb 3d
       0.036353916 -0.049801975 0.06346278 0.091446176
000150 d6 69 7e bd 8c 4a 42 3d 20 a4 c6 bd e8 50 d1 bc
       -0.06211265 0.047434375 -0.09699273 -0.025551274
000160 9a 69 28 be a0 5d 31 3d c8 dd 9b bc 40 a0 28 3d
       -0.16446534 0.04330218 -0.019026652 0.04116845
000170 44 1d 09 be 88 be 89 bc a8 37 9f bd b6 b9 cb 3d
       -0.1339007 -0.016814485 -0.077742875 0.09947531
000180 01 9f c2 3c 5e 64 78 3e 95 5b 95 3f 4c fc 85 be
       0.02375746 0.24257037 1.1668574 -0.2616905
000190 e0 af 1b 3c 50 6a cd 3d 9e 6d 90 3f e3 24 a6 bd
       0.009502381 0.10030043 1.1283453 -0.08112504
0001a0 5f 04 0f be a6 8a d9 bf ad 02 33 3e 7c ea 10 bf
       -0.13966511 -1.6995437 0.1748149 -0.56607795
0001b0 c5 34 a7 3e 15 aa 09 bf 92 b7 8f 3d 14 51 32 be
       0.32657447 -0.5377515 0.07017435 -0.17413741
0001c0 d5 e5 9c bc ce d0 dc 3e fc 14 ae bf 3e c7 94 3d
       -0.019152561 0.43128055 -1.3600154 0.07264565
0001d0 a9 09 1c 3e fc 25 18 bd 4a b1 9a 3d 2c 2a 28 bf
       0.1523806 -0.0371456 0.075533465 -0.6568935
0001e0 74 c7 c5 bd 20 c6 1c bd 5f 9a 9c 3e 20 ed d0 bc
       -0.09657183 -0.038274884 0.30586526 -0.025503695
0001f0 ff db eb be 00 7a 70 bd f4 43 34 be b0 69 d1 bc
       -0.4606628 -0.0587101 -0.17604047 -0.025563091
000200 50 97 42 bd 36 c5 92 bd 10 21 b6 bd b0 c8 f4 bd
       -0.047507584 -0.07166521 -0.08893025 -0.119523406
000210 35 f3 32 3e 5b e6 24 be 0e c5 1d be 0e 45 ad 3d
       0.17475589 -0.16103499 -0.15407202 0.08460437
000220 80 0c 8c 3d d8 61 ea bd 5c 3b 28 3d ec ac 03 be
       0.06838322 -0.114444435 0.041072235 -0.12858933
000230 72 ff d9 3d b4 2b 00 3d c8 db 84 3c c5 c3 1e 3e
       0.106444255 0.03129168 0.016218081 0.15504368
000240 f4 24 3b bd 84 a1 5e bd 58 77 3a bd 97 22 25 3e
       -0.045689538 -0.054353252 -0.04552397 0.16126476
000250 04 e8 e2 bd da c0 65 bd 0c 66 3e bd 4a d4 82 3d
       -0.1107941 -0.05609212 -0.04648404 0.06388147
000260 be 5a db bd 20 a2 fe 3c a9 b2 ba bd d2 f7 fa bd
       -0.10710667 0.031083167 -0.09116108 -0.12254299
000270 6d 1f 07 be a2 55 7b bd c0 62 c8 bd c0 89 57 bd
       -0.13195582 -0.061360963 -0.0978446 -0.052621603
000280 2a a0 ae 3e 30 dd a8 3d cb f9 7a 3f 49 62 43 be
       0.3410657 0.08245313 0.98037404 -0.19080462
000290 72 36 f5 3d 2e fc 8d 3c b1 7f c0 3f 00 01 09 be
       0.11973275 0.017332163 1.5038968 -0.13379288
0002a0 9e 01 25 be be 85 da bf c0 1e 5c 3c 0e aa a4 be
       -0.16113898 -1.7072065 0.013435066 -0.3216099
0002b0 2d d5 ae 3c cd f2 0e bf 7f dc c6 bd e2 c4 ca 3d
       0.021341885 -0.55839235 -0.09710025 0.09900834
0002c0 9f 2c 29 3e 58 69 d6 3e e7 36 a4 bf b8 46 ef 3c
       0.16520928 0.41877246 -1.2829255 0.029208526
0002d0 9c aa 72 3e ef f0 ea bd 1d 49 8f 3e 9c fe 5d bf
       0.23697895 -0.11471736 0.27985469 -0.8671663
0002e0 d2 31 04 be f3 6c 03 3e 48 79 45 3e 3c d6 49 3d
       -0.1290963 0.1283453 0.19284546 0.049276575
0002f0 a8 21 18 bf 80 d3 2d be f0 e7 47 3c 0a fa 99 3d
       -0.59426355 -0.16975212 0.012201294 0.07518394
000300 93 2c 27 be 56 b3 19 bf d1 c5 ac 3f 5b 9c f5 bd
       -0.16325597 -0.6003927 1.3497869 -0.11992713
000310 cf 11 be bd d9 da 34 3f 8e 35 5d 40 c5 79 a0 3e
       -0.092807405 0.70646435 3.4563937 0.31342903
000320 40 c3 ff bb 2d dc 4a 3f 55 d7 cd bd c8 2f 60 c0
       -0.007805258 0.7924221 -0.10050837 -3.5029163
000330 7a 3f b7 3d 4d 8d 58 c0 0e 28 2d be 04 28 83 3d
       0.08947654 -3.3836243 -0.16909811 0.06404117
000340 07 99 23 3f 7f 87 24 3f c7 11 86 bc 74 80 88 bd
       0.63905376 0.6426925 -0.016365899 -0.066651255
000350 b1 e4 be 3e 26 5c 05 be e0 4e 2f 3f 8b 19 31 c0
       0.37283853 -0.13023433 0.6847973 -2.767184
000360 81 d8 11 3e 0a b5 00 be 1f 39 99 3e c4 73 20 be
       0.14242746 -0.12569061 0.29926392 -0.15669161
000370 d0 40 5d 3f ac 6b 05 be 2f f9 f5 bd 01 97 c3 bd
       0.8642702 -0.13029355 -0.120104186 -0.09550286
000380 c4 10 f5 be ac 49 8f bd 35 38 d5 be 93 25 c7 3f
       -0.47864354 -0.06996474 -0.41644445 1.5558342
000390 0e f8 88 3d 50 e6 50 3f e3 97 d3 3d b0 96 29 c0
       0.06687938 0.8160143 0.103317045 -2.6498222
0003a0 36 cd 8c 3d 33 b5 51 bf a0 f3 33 bd 8d 1b 19 40
       0.068750784 -0.81917113 -0.04393351 2.3923066
0003b0 44 f2 a5 be eb 52 f0 bf bf 24 e1 bd 7b 01 21 3e
       -0.32411397 -1.8775305 -0.10993337 0.15723221
0003c0 88 47 2a 3f 0d 12 94 bf 06 23 fe 3f 0c 72 0d 3d
       0.665154 -1.1568009 1.9854438 0.03453259
0003d0 72 fc 14 3f 32 e8 cc 3d d4 4e 5a 3f 16 3e 8f c0
       0.581977 0.10005225 0.8527653 -4.476329
0003e0 ae 9a 15 be e0 2e 3c bd 0d 6a b1 be 29 a7 26 3e
       -0.14609787 -0.04594314 -0.34651223 0.16274704
0003f0 20 a0 2c bf ea f8 d4 3d 22 9e ba 3d ce 37 f8 3d
       -0.6743183 0.10399039 0.09112193 0.12120019

mods.1.bias f4 [32]
000000 91 5a e7 bd 5a c4 be bd f0 03 33 3c c2 85 03 3e
       -0.11296571 -0.09314795 0.010926232 0.12843993
000010 d8 69 74 3d 5b f2 93 3e c7 67 8d 3e 8b f8 29 bf
       0.059671253 0.2889584 0.27618238 -0.6639487
000020 94 b7 ac 3e d1 48 ee 3d f5 b7 3c 3e 2e 05 c5 3d
       0.3373381 0.116349824 0.18429549 0.096201286
000030 9f a3 8c 3e 15 c4 bc 3e dd 4c f8 bd c0 ef a6 3c
       0.27468583 0.3686835 -0.121240355 0.020377994
000040 0d 5e b2 3e b6 60 ff bd 20 50 3d bc 71 03 55 be
       0.3483738 -0.12469618 -0.011554748 -0.20802094
000050 09 34 42 be 90 68 87 3e ea e5 a1 3d 88 95 ca 3e
       -0.18965162 0.26446962 0.07905181 0.39567208
000060 1f ba b2 3e 54 84 5c 3d f1 39 cd 3d 57 3b f5 3c
       0.34907624 0.053837135 0.10020817 0.029935522
000070 4e 25 f9 bd 01 3a 66 be ab 53 8e 3e 74 8d ca 3e
       -0.121653184 -0.22483064 0.2779821 0.39561045

mods.2.weight f4 [1, 32]
000000 b5 51 15 3e ad 7d cc bd d6 fe d8 3d d4 cc c9 40
       0.1458195 -0.09984908 0.10595481 6.3062534
000010 e8 c4 f8 3c 7b 99 2a 40 3c f4 29 40 dd 06 6b c1
       0.03036733 2.6656177 2.655532 -14.689176
000020 1e a5 c6 40 f0 1f bf 40 f8 99 a8 40 93 e1 c1 40
       6.207656 5.9726486 5.268795 6.058786
000030 61 59 81 40 15 c2 2b c1 11 0e 25 be 88 d3 8c 3d
       4.0421605 -10.734883 -0.16118647 0.06876284
000040 7a c2 34 40 31 6c ff 3d bc e5 a4 bd e6 7d b9 bf
       2.82437 0.12471808 -0.08051631 -1.4491546
000050 b5 33 a3 bf 99 83 c8 40 65 7f 27 3e 4a a8 b0 40
       -1.2750155 6.266064 0.16357191 5.520543
000060 fd ab 88 40 7d 6d 1c 3e 91 8c 8b bf 76 1f 40 c1
       4.2709947 0.15276141 -1.0902272 -12.007681
000070 bd cc 14 3e c3 de e6 bf 16 f2 b3 40 23 2c ad 40
       0.14531226 -1.8036731 5.6233015 5.411638
