models/simvsreal_10k_model.pt (torch, 6679 bytes, 5 tensors)

mods.0.weight f4 [32, 2]
-0.017408915 -1.35926 -1.53788 -0.00443374 0.93727624 -0.7524869 -0.6662952 0.60262203
0.82261205 0.6012348 -1.1156703 1.3391733 -0.6697621 0.09193641 0.50728637 1.8078657
-0.10386531 -0.7177166 -0.0830566 1.5882208 -0.37695846 -0.111893535 -1.1019199 0.17497776
-0.1565705 2.4339602 -0.24260694 -0.6825775 -0.022522433 -1.1768509 -0.4787941 0.5553142
-0.58826494 -0.03300649 -1.0581139 -0.48078823 -0.4950728 -0.24075949 -0.35827535 0.10884088
0.5434592 1.1948817 0.655827 -0.3372298 -0.2659891 1.6875268 -0.6572401 0.8703879
-0.6808109 -0.5277636 0.6638035 -0.5520958 -0.22428094 0.97594804 0.7680615 1.479093
-0.29950872 -0.33766487 -0.08978242 -0.14241117 -0.3110349 -0.043901563 1.0471333 -0.46296078
00000000: 249d 8ebc 3bfc adbf 40d9 c4bf e848 91bb
00000010: 56f1 6f3f fba2 40bf 5292 2abf 7045 1a3f
00000020: b496 523f 86ea 193f 49ce 8ebf 086a ab3f
00000030: 8775 2bbf 2849 bc3d 85dd 013f 2568 e73f
00000040: 56b7 d4bd 46bc 37bf 9419 aabd d24a cb3f
00000050: b300 c1be 7028 e5bd b60b 8dbf 5f2d 333e
00000060: 0454 20be 01c6 1b40 f46d 78be 66bd 2ebf
00000070: f780 b8bc 0da3 96bf 8024 f5be 1229 0e3f
00000080: 8898 16bf d031 07bd 4770 87bf e029 f6be
00000090: 2f7a fdbe a889 76be de6f b7be f8e7 de3d
000000a0: 2420 0b3f e2f1 983f 47e4 273f 62a9 acbe
000000b0: b92f 88be e100 d83f e340 28bf bed1 5e3f
000000c0: a049 2ebf 841b 07bf 07ef 293f 2656 0dbf
000000d0: e7a9 65be bbd7 793f ae9f 443f eb52 bd3f
000000e0: 3559 99be 69e2 acbe d8df b7bd 3cd4 11be
000000f0: f73f 9fbe 20d2 33bd 7708 863f 3209 edbe

mods.0.bias f4 [32]
1.0201412 0.5097408 0.720898 0.3001589 -0.527239 0.4181262 -0.33304423 -0.54888445
0.9841085 0.46024922 -0.5110284 0.7077913 -0.278026 0.18125033 1.1113731 -0.03760018
-0.22489408 0.69024473 -0.18265551 -0.1697492 -0.4861792 0.86929023 0.044950806 -0.07932954
-0.0141070485 0.18947648 -0.27140328 0.28282484 -0.54880565 -0.03296894 -0.13267791 -0.37533605
00000000: fd93 823f 607e 023f c58c 383f 6dae 993e
00000010: 23f9 06bf a314 d63e c684 aabe b183 0cbf
00000020: 89ee 7b3f c9a5 eb3e c2d2 02bf d031 353f
00000030: 6d59 8ebe b099 393e 7941 8e3f a502 1abd
00000040: a24a 66be e1b3 303f 0c0a 3bbe bcd2 2dbe
00000050: 7bec f8be ce89 5e3f 561e 383d 8777 a2bd
00000060: 4021 67bc 1f06 423e 5ff5 8abe 6bce 903e
00000070: 877e 0cbf 700a 07bd b8dc 07be 0c2c c0be

mods.1.weight f4 [32, 32]
1.1236972 -7.2294044 0.8075132 -3.3699412 -0.06779375 -3.83104 0.09176813 -2.138303
0.6068303 -0.042331498 0.107440785 -2.7688475 -0.39906946 0.089840725 0.90168774 -0.64610237
0.057892397 2.710075 0.055602416 -0.099829465 -1.4797751 0.58317703 -0.39083377 -1.1860464
-0.10907025 0.92076814 -1.3998852 0.3537078 -0.024369225 0.054183245 -0.041401878 0.8582468
-0.029593647 -0.091961786 -0.07437627 0.17559446 0.029798284 -0.09667134 0.02006708 -0.17636207
0.0015593767 0.13570322 0.020389825 0.042118847 -0.16651817 -0.033249706 0.10431306 -0.12961316
-0.08269768 0.11946668 0.050766483 0.0826384 -0.16484728 0.112509415 -0.038557217 0.037152424
0.14288883 -0.16291031 0.050577924 -0.1598102 0.13087459 0.05190721 0.019669846 -0.07081878
-1.4176596 -9.416379 0.26354676 -0.38638547 -0.48177022 -0.60482305 0.041289374 -0.3780149
0.30341426 0.15234084 -0.045937836 -0.6657512 0.015002044 -0.034275547 0.5051765 0.9719808
0.07871859 1.7792399 0.15354992 -0.10214552 -0.35422677 0.20496367 0.0701056 0.70493895
0.030818537 -0.21414143 0.54297554 0.0872709 -0.13751194 -0.011067376 0.049450517 -1.1528771
-1.276568 -8.837557 0.2849884 -0.36559653 -0.44920498 -0.36290786 -0.020784378 -0.24227539
0.36867994 0.05316402 0.12443493 -0.76795226 0.032995474 0.07749458 0.3264526 0.887442
-0.17485888 1.657188 0.085949734 0.09111421 -0.5050837 0.27582267 0.022753526 0.98899853
-0.1724253 -0.1086309 0.34339815 -0.024508394 -0.028872386 -0.16247119 0.13849612 -1.2181485
-1.3119572 -8.351259 0.25227973 -0.5494233 -0.17223912 -0.30908233 0.13917457 -0.42458248
0.4591208 -0.083085746 0.08111231 -0.61094016 -0.16234155 -0.14187235 0.2525295 0.85191065
-0.06393795 1.6910592 0.16829221 -0.053859606 -0.30476555 0.1877748 0.115874805 0.86522084
0.111945525 -0.032274514 0.38466465 0.23045728 -0.012602627 -0.10582621 0.055011526 -1.1543671
-0.13110313 0.023124978 -0.04107392 -0.07039807 -0.08436952 -0.07522913 -0.071587935 0.017369881
0.17077832 -0.10361503 -0.082469836 -0.1185017 -0.0067079067 0.012394503 -0.12133835 0.08074622
-0.15854526 0.16361786 0.033267304 -0.017816499 -0.063297674 0.07937272 0.12908833 -0.11562758
-0.044310436 0.1301352 -0.03312917 -0.1301678 -0.05680999 0.0061064065 -0.03300184 -0.121144354
-1.5892853 -9.18635 0.33934435 -0.3055011 -0.34273705 -0.40522572 -0.14039977 -0.27749997
0.4832793 0.1320139 -0.069894075 -0.48899472 -0.19984315 -0.021212608 0.345496 0.67931056
-0.10084683 1.676781 0.047512442 -0.014704362 -0.29165843 0.143355 0.13858077 0.8724526
0.14653759 0.036762796 0.28750607 -0.063154235 0.106477335 0.16701366 -0.15088153 -1.1571596
-0.06796375 0.1664287 0.1468526 0.12865855 0.09513126 -0.016581833 0.16311856 -0.08272267
0.008737043 -0.04651296 -0.12895963 -0.08377211 0.042861253 -0.015772209 -0.11710584 -0.022473857
0.030530393 -0.12368205 0.10676177 -0.15029341 0.0016912967 -0.1446074 -0.15940918 -0.021959484
0.16043814 0.16711466 0.063535064 0.13701941 -0.09663475 0.099524036 0.107862994 -0.16894548
00000000: 4fd5 8f3f 4857 e7c0 2fb9 4e3f 1ead 57c0
00000010: 73d7 8abd c22f 75c0 eef0 bb3d f5d9 08c0
00000020: 3b59 1b3f cb63 2dbd ea09 dc3d cc34 31c0
00000030: d552 ccbe 6afe b73d 02d5 663f f766 25bf
00000040: 9420 6d3d de71 2d40 5cbf 633d 6473 ccbd
00000050: 4569 bdbf 174b 153f 5d1b c8be 5ed0 97bf
00000060: 3960 dfbd 76b7 6b3f 702f b3bf 3019 b53e
00000070: f8a1 c7bc 40ef 5d3d 0495 29bd 10b6 5b3f
00000080: 606e f2bc 7656 bcbd 9652 98bd 09cf 333e
00000090: 881b f43c a0fb c5bd b863 a43c 4298 34be
000000a0: 0064 cc3a c9f5 0a3e 9008 a73c d084 2c3d
000000b0: bd83 2abe d830 08bd 16a2 d53d 50b9 04be
000000c0: 675d a9bd f2aa f43d 84f0 4f3d 523e a93d
000000d0: bacd 28be 566b e63d 2cee 1dbd 242d 183d
000000e0: 7351 123e f6d1 26be cc2a 4f3d 49a5 23be
000000f0: fd03 063e a89c 543d a822 a13c 7009 91bd
00000100: df75 b5bf 7da9 16c1 9aef 863e 51d4 c5be
00000110: 96aa f6be afd5 1abf 0c1f 293d 2b8b c1be
00000120: 1d59 9b3e 3dff 1b3e 5029 3cbd ac6e 2abf
00000130: 22cb 753c 8464 0cbd 3f53 013f bcd3 783f
00000140: 3637 a13d 22be e33f 313c 1d3e ac31 d1bd
00000150: 365d b5be ffe1 513e 8693 8f3d e176 343f
00000160: 2877 fc3c e447 5bbe 7200 0b3f 16bb b23d
00000170: eecf 0cbe f053 35bc a08c 4a3d 7a91 93bf
00000180: 9566 a3bf a266 0dc1 00ea 913e 782f bbbe
00000190: 32fe e5be 0fcf b9be 0044 aabc 0a17 78be
000001a0: 9ec3 bc3e 84c2 593d bed7 fe3d 8598 44bf
000001b0: 4326 073d 7ab5 9e3d cc24 a73e 662f 633f
000001c0: 350e 33be bd1e d43f 6a06 b03d 169a ba3d
000001d0: 2a4d 01bf a138 8d3e 9a65 ba3c 022f 7d3f
000001e0: 4290 30be e179 debd e2d1 af3e d4c5 c8bc
000001f0: c885 ecbc d95e 26be edd1 0d3e 4aec 9bbf
00000200: 37ee a7bf c29e 05c1 cf2a 813e 01a7 0cbf
00000210: 745f 30be 0a40 9ebe c783 0e3e e062 d9be
00000220: e211 eb3e dc28 aabd 361e a63d 9366 1cbf
00000230: dd3c 26be fc46 11be 8c4b 813e d116 5a3f
00000240: e6f1 82bd a174 d83f cb54 2c3e e49b 5cbd
00000250: 3b0a 9cbe 0a48 403e c54f ed3d 1d7f 5d3f
00000260: b243 e53d 4832 04bd c4f2 c43e fefc 6b3e
00000270: 407b 4ebc 69bb d8bd c453 613d 4dc2 93bf
00000280: e63f 06be 9870 bd3c 203d 28bd dd2c 90bd
00000290: edc9 acbd bb11 9abd b29c 92bd 484b 8e3c
000002a0: 83e0 2e3e 1e34 d4bd f2e5 a8bd 05b1 f2bd
000002b0: 00ce dbbb 5012 4b3c 3e80 f8bd 465e a53d
000002c0: b059 22be 718b 273e 4c43 083d e8f3 91bc
000002d0: 36a2 81bd 2a8e a23d bb2f 043e 27ce ecbd
000002e0: dc7e 35bd 2942 053e 74b2 07bd b54a 05be
000002f0: 98b1 68bd 4018 c83b f02c 07bd 881a f8bd
00000300: b36d cbbf 4afb 12c1 8bbe ad3e a46a 9cbe
00000310: 3b7b afbe bf79 cfbe f5c4 0fbe 7a14 8ebe
00000320: 6270 f73e a72e 073e a024 8fbd 845d fabe
00000330: afa3 4cbe 10c6 adbc dae4 b03e 4ce7 2d3f
00000340: c888 cebd c3a0 d63f 689c 423d 90ea 70bc
00000350: 4154 95be a7cb 123e 1ee8 0d3e 0e59 5f3f
00000360: f30d 163e 9694 163d ff33 933e 0257 81bd
00000370: ca10 da3d a105 2b3e b080 1abe ce1d 94bf
00000380: 9430 8bbd 496c 2a3e 8760 163e 11bf 033e
00000390: 2ed4 c23d a0d6 87bc 8d08 273e 816a a9bd
000003a0: d025 0f3c 6084 3ebd fe0d 04be b690 abbd
000003b0: 488f 2f3d b834 81bc 30d5 efbd 181b b8bc
000003c0: e01a fa3c 044d fdbd eaa5 da3d 84e6 19be
000003d0: 80ae dd3a f613 14be 293c 23be 60e4 b3bc
000003e0: e549 243e 1b20 2b3e ac1e 823d d14e 0c3e
000003f0: 71e8 c5bd 42d3 cb3d 46e7 dc3d 0b00 2dbe

mods.1.bias f4 [32]
0.28283706 -0.16428791 0.2251849 0.293925 0.3054277 0.03102383 0.33891413 -0.1522854
0.25749013 -0.05601786 0.21822003 0.3045958 -0.12659062 0.58365184 -0.03530933 0.35138625
0.20276389 -0.017438872 0.17531121 -0.06311813 -0.20436156 0.17503273 -0.12594213 0.26443437
0.31129417 0.17846677 0.3069096 0.29995403 -0.022654733 0.046348706 0.19469759 0.17293866
00000000: 05d0 903e 173b 28be df96 663e 567d 963e
00000010: 0561 9c3e b025 fe3c 2786 ad3e b4f0 1bbe
00000020: bfd5 833e fc72 65bd 1275 5f3e fbf3 9b3e
00000030: f9a0 01be 356a 153f 84a0 10bd e6e8 b33e
00000040: 56a1 4f3e f7db 8ebc c884 333e 1444 81bd
00000050: 2844 51be c83b 333e f9f6 00be f163 873e
00000060: f361 9f3e febf 363e 4123 9d3e 9393 993e
00000070: 6b96 b9bc 24d8 3d3d ce5e 473e d516 313e

mods.2.weight f4 [1, 32]
3.8790386 -0.11774065 5.3953133 6.5503926 4.4086566 0.060357243 6.5716496 -0.032638922
6.400571 -0.12234796 4.2810383 6.2103777 -0.09734133 -2.5860853 0.13784827 -12.864413
6.164369 -1.6622165 -1.0594133 -0.07484629 0.14859137 -1.3677119 0.14484262 2.5106425
4.1933947 6.8570585 4.6001406 6.567867 -1.581826 -0.048603937 6.3462734 0.15573005
00000000: 2b42 7840 0322 f1bd 68a6 ac40 d19c d140
00000010: b713 8d40 2839 773d f44a d240 64b0 05bd
00000020: 7ad1 cc40 9191 fabd 44fe 8840 6abb c640
00000030: e45a c7bd 6c82 25c0 1928 0d3e a3d4 4dc1
00000040: 8342 c540 83c3 d4bf db9a 87bf 0349 99bd
00000050: 5628 183e 2f11 afbf a051 143e 5eae 2040
00000060: 4a30 8640 066d db40 5a34 9340 f72b d240
00000070: 4679 cabf ec14 47bd ac14 cb40 b377 1f3e
