models/simvsreal_5k_model.pt (torch, 2015 bytes, 3 tensors)

mods.0.weight f4 [32, 2]
000000 97 ca 9c 3f 52 ae 61 3f e9 6a 04 be 50 8f d9 3f
       1.2249326 0.88156617 -0.12931408 1.699686
000010 74 9a 76 bf d2 95 0a be a6 42 b0 be 7a 9e d4 3e
       -0.96329427 -0.13533714 -0.3442585 0.41527158
000020 89 93 1f 3f 06 cd 04 bf 1c a5 ea 3f a8 36 71 3a
       0.62334496 -0.5187534 1.8331637 0.0009201565
000030 51 a7 b8 3f 86 55 9e 3e 13 23 23 3f 80 ff fc bc
       1.4426061 0.30924624 0.63725394 -0.03088355
000040 c1 50 95 3f a2 01 de 3e 9c 03 a9 be ec 90 38 3e
       1.1665269 0.4336062 -0.33010566 0.18024033
000050 f2 cd a6 be 48 d4 a9 bd 86 0b 93 be 7a 2a f0 3e
       -0.32579 -0.082924426 -0.2871973 0.46907407
000060 2a e4 0e bf 50 e7 a6 be af 1c 6e c0 10 d9 18 bc
       -0.558169 -0.32598352 -3.7205007 -0.0093290955
000070 f7 41 ca 3e e6 24 31 c0 68 bd c5 3f e8 83 98 be
       0.39503452 -2.767877 1.5448427 -0.29788136
000080 88 66 d3 3f f0 c5 70 ba 76 1c 6b be c6 b8 df 3e
       1.6515665 -0.00091847684 -0.22960076 0.43695658
000090 14 c7 1e bf 68 86 8f 3e d0 4f 9e 3d c6 5a 64 be
       -0.6202252 0.2803223 0.07730067 -0.22300252
0000a0 88 7d 25 3f b8 d2 b9 3d ff 8b ea 3e fa 1f e3 3e
       0.6464467 0.090733945 0.45809934 0.44360334
0000b0 7b dd 4a 3f 31 d7 70 be fe fd d0 3e 70 8e 01 3e
       0.792442 -0.23519589 0.4081878 0.12651992
0000c0 1e db b7 3e 16 aa dc be 4c 31 33 bf a1 e0 8b be
       0.3590936 -0.43098515 -0.69997096 -0.27319816
0000d0 05 b8 d2 bf 1e d9 59 3f 27 2d aa 3f 02 d1 8a bb
       -1.6462408 0.8509692 1.3295029 -0.0042363415
0000e0 98 88 f2 be 7d 59 9d be 8b 00 27 bc a5 69 63 bf
       -0.47369838 -0.30732337 -0.010193001 -0.88833076
0000f0 c0 5c 36 3d 1e 1b f7 be 4c 45 5f 3e 02 5c 79 be
       0.044522047 -0.48262876 0.21803778 -0.24351504

mods.0.bias f4 [32]
000000 db 59 1e bd a4 f8 01 bf a1 e1 6e 3f bd 94 d6 be
       -0.03865991 -0.5077002 0.9331303 -0.41910353
000010 4c eb d7 be 18 55 28 bf 4e 11 2c 3e aa d4 d3 3c
       -0.42171705 -0.6575484 0.16803476 0.025858242
000020 35 fa f7 3e 16 64 15 bf 7b 8c 33 bf 7b 9f 0d bf
       0.4843308 -0.58355844 -0.7013623 -0.5532147
000030 1a 8a f3 be 8b 8a aa 3f 3d 36 41 3f ca 50 5c 3e
       -0.475663 1.332353 0.75473386 0.21515194
000040 ce 49 17 bf 58 ce f6 be 5e 16 1c 3f 70 56 92 be
       -0.5909699 -0.48204303 0.6097163 -0.28581572
000050 00 18 8c 3e d8 78 8f be 4a e5 10 3e 6f a5 0c bf
       0.2736206 -0.28021884 0.14149967 -0.5493993
000060 e6 b3 b6 be 10 c1 5c 3e 12 82 f4 3e 90 f3 f1 be
       -0.35684127 0.21558022 0.47755486 -0.47256136
000070 a4 53 27 3f 35 b8 2b 3f 39 45 03 bf eb 47 c1 be
       0.65362 0.6707795 -0.512775 -0.37750182

mods.1.weight f4 [1, 32]
000000 96 9c 24 3f 7c b7 ea 3f a2 3a 80 bf 41 27 2f be
       0.6430143 1.8337245 -1.0017893 -0.17104818
000010 2a 54 cf bd a4 50 0e c0 a5 96 d1 3e bf 6f 63 3e
       -0.10123475 -2.223672 0.40935245 0.22210597
000020 6a d6 81 3e 4a 4d f7 bd 82 93 19 be 75 5c c7 bd
       0.25358897 -0.120752886 -0.14997676 -0.09734432
000030 28 6e 1e be 2b b4 17 c1 19 a1 a6 40 d3 bd d7 3e
       -0.15471709 -9.481486 5.2071652 0.42137012
000040 d8 ca 13 c0 7a d5 28 be 57 ca a0 be 6c 03 71 bd
       -2.3092556 -0.16487685 -0.31404373 -0.058841154
000050 10 8d 16 3e 79 35 48 bd 67 8c 22 3e bd bd d8 bd
       0.14702249 -0.04887912 0.15873872 -0.10583065
000060 00 6c 00 3a 3b b7 86 bd f3 0c f4 bf e6 95 07 c0
       0.0004898906 -0.06577917 -1.9066452 -2.118524
000070 ba b3 19 bf cb d9 af be 8e d9 77 bd 06 e0 0e be
       -0.60039866 -0.3434585 -0.06051021 -0.13952646
