models/simvsreal_model.pt (torch, 19607 bytes, 5 tensors)

mods.0.weight f4 [64, 2]
000000 53 25 26 3f 07 f0 1f 3f f3 f6 5c be b7 d4 46 3f
       0.649007 0.6247563 -0.21578579 0.7766833
000010 75 eb 0d bf 29 c3 6a 3d 68 ad 50 bf 54 18 f7 3e
       -0.55437404 0.057315025 -0.81514597 0.48260748
000020 89 93 1f 3f 06 cd 04 bf 64 39 6c 3f 87 86 c1 3d
       0.62334496 -0.5187534 0.9227507 0.09449487
000030 f6 34 32 3f fe 7f f1 3b 1c 92 ae 3e 67 77 cc bd
       0.6961206 0.007369994 0.34095848 -0.09983712
000040 95 8b 0b 3f d7 0c d6 3d 9c 03 a9 be eb 90 38 3e
       0.5450986 0.10451668 -0.33010566 0.18024032
000050 bd 4d 78 bf f3 a9 de 39 d0 8d 95 be 50 de 21 3f
       -0.9699362 0.00042469762 -0.29209757 0.63229847
000060 0b 3d 90 bf 85 c4 c0 39 0e 76 4c be 13 af d9 be
       -1.1268629 0.00036767512 -0.1996691 -0.42516384
000070 31 27 f8 bc 8c 16 99 bf ef 7a 23 3f 2a c5 19 bf
       -0.030292125 -1.1960006 0.63859457 -0.60066473
000080 19 87 51 3f 28 ad 2c 3e 78 9c 2e bf 91 77 04 3f
       0.8184677 0.16862929 -0.682075 0.51744944
000090 2b c9 3d 3e da 7e f4 3e 50 90 05 3e 3c c5 c8 be
       0.1853377 0.4775303 0.13043332 -0.39212978
0000a0 36 58 09 3f 87 88 a0 be 15 a8 31 3f af 66 0a 3f
       0.53650224 -0.31354162 0.693971 0.5406293
0000b0 9d 60 44 3f 86 ff a1 be 62 ce 25 3f 30 3b de 3b
       0.7670992 -0.3164026 0.6476804 0.006781958
0000c0 f7 14 4b 3f db 44 a7 be 4c 31 33 bf a1 e0 8b be
       0.79328865 -0.3266972 -0.69997096 -0.27319816
0000d0 88 eb 72 bf ec e2 10 3f 95 8e 50 3e 19 f6 95 3e
       -0.9489064 0.56596255 0.2036689 0.2928932
0000e0 53 66 6f 3e 7e 3e 8b be ee 60 6d 3f 55 d8 08 bf
       0.23378877 -0.27196115 0.9272603 -0.53455096
0000f0 c3 d9 a0 3e 2e 9a 01 bf 4c 45 5f 3e 02 5c 79 be
       0.3141614 -0.50625885 0.21803778 -0.24351504
000100 01 10 09 bd 1d b0 ca be 90 43 30 3f 6a a1 dd be
       -0.03346253 -0.3958749 0.6885309 -0.43287212
000110 4c eb d7 be a3 ee d7 be 49 dd 1e 3f a3 79 61 3e
       -0.42171705 -0.42174253 0.62056404 0.22019057
000120 35 75 89 3f 7b 19 26 bf 7b 8c 33 bf 7b 9f 0d bf
       1.0738894 -0.6488263 -0.7013623 -0.5532147
000130 1a 8a f3 be e4 a3 92 3e 54 e3 27 bd ab d9 43 3f
       -0.475663 0.28640664 -0.04098828 0.7650401
000140 49 f7 ba be 58 ce f6 be fd 16 c0 3e 70 56 92 be
       -0.3651679 -0.48204303 0.3751754 -0.28581572
000150 da ba db 3e f2 d2 2b be 5d 99 09 3f be b4 a1 bf
       0.42915994 -0.16779688 0.5374964 -1.2633283
000160 37 a9 4c bf d1 66 81 3e 4e 13 19 3e 1f 9c 38 be
       -0.799457 0.25273755 0.1494877 -0.18028305
000170 b1 34 55 3f 72 b6 02 3f 39 45 03 bf eb 47 c1 be
       0.83283526 0.5105964 -0.512775 -0.37750182
000180 a5 c0 25 3f c5 53 74 be 20 04 66 bb 0c f4 c0 bf
       0.6474708 -0.2386008 -0.0035097674 -1.5074477
000190 e5 8a 41 bf cd 94 93 3d 83 25 bf bd 3f 66 03 bf
       -0.7560256 0.07206116 -0.09333327 -0.5132789
0001a0 dd fe 6f 3e 2e 1d 73 bf 01 02 7b bf 2d 65 e8 be
       0.23437066 -0.949664 -0.9804993 -0.4538969
0001b0 29 6e 1e bf 18 86 e6 be 44 aa 5f 3f a1 de 09 3c
       -0.6188684 -0.4502418 0.8736918 0.008414895
0001c0 2a 20 11 bd 77 3c 72 bf cb 40 44 bf 8f 8b 88 be
       -0.035431065 -0.9462351 -0.76661366 -0.26668975
0001d0 27 5d 8e 3e a9 0d 94 bf 22 fe 9b be bd bd d8 be
       0.27805445 -1.1566669 -0.30467325 -0.4233226
0001e0 39 6c 00 3b 3b b7 86 be b4 b3 48 bd 02 54 f5 be
       0.0019595756 -0.2631167 -0.048999503 -0.47915655
0001f0 68 80 f8 be c9 36 d3 be 8d d9 77 be 07 e0 0e bf
       -0.48535466 -0.41252735 -0.24204083 -0.5581059

mods.0.bias f4 [64]
000000 e3 b1 0d 3f 24 66 53 be 0d f5 18 3f a3 01 df 3e
       0.5534956 -0.20644432 0.5974892 0.43555936
000010 60 49 19 bf 35 84 f9 3e 8e 8d 70 be 63 c7 8a be
       -0.59877586 0.48733678 -0.23491499 -0.27105245
000020 41 42 16 bf 59 f6 33 bf 94 27 a3 3e 0e 32 08 be
       -0.58694845 -0.7029777 0.31866133 -0.13300344
000030 92 8e be 3e 53 8e 14 bf 95 5f 6a 3f bf e0 04 bf
       0.37218148 -0.5802967 0.91552097 -0.51905435
000040 77 65 34 be f5 a2 ab 3e 96 2d c4 3e b4 c9 1e 3f
       -0.17616831 0.33522764 0.3831603 0.62026525
000050 25 79 03 3f d2 f2 1b bf a6 ee 22 3e c5 be 5f be
       0.51356727 -0.6091739 0.1591135 -0.21850117
000060 39 1e 98 be be 7d 07 bf 60 23 26 3f f6 db 04 bf
       -0.29710558 -0.5292624 0.6489773 -0.51898134
000070 8d 38 b8 3e 65 a8 57 3e 46 e6 a4 3e 1e bc c3 be
       0.35980645 0.21060331 0.32206935 -0.3822946
000080 55 17 20 3f 41 40 af 3d 6b 4a ba 3d 4a 77 23 bf
       0.625356 0.08557177 0.09096225 -0.63853896
000090 4a 2f 73 3e c7 40 d9 bd d4 db a5 be 1e 14 0d 3f
       0.23748508 -0.106080584 -0.32394278 0.5510882
0000a0 a2 6e 21 3e b5 4e c8 be eb 3d b7 be 14 db c8 3d
       0.1576486 -0.3912255 -0.35789427 0.09807411
0000b0 02 d6 f7 3e b8 06 39 be cf ac 31 bf 83 f4 77 be
       0.48405463 -0.18068969 -0.6940431 -0.24214368
0000c0 28 3c 07 bf e4 e0 c3 3e 61 78 0a 3f 3d 6b 2a bf
       -0.52826166 0.38257515 0.54089934 -0.6656988
0000d0 25 43 9d 3e 83 56 25 3f e7 4b 03 3e 8a ab 96 be
       0.3071529 0.6458513 0.12821923 -0.2942775
0000e0 1f 71 37 3f 9f db 1f 3f a6 60 b6 3e c6 78 fe bd
       0.71656984 0.6244449 0.35620612 -0.124253795
0000f0 91 bc 3f be c7 ec 9a 3d 8d d2 ff bd 9b c6 57 be
       -0.18724276 0.07564693 -0.12491331 -0.21071856

mods.1.weight f4 [64, 64]
000000 c8 c1 29 3e 83 7e 9f 3e ea 32 94 3e 85 e3 9c 3e
       0.16577828 0.31151208 0.28945094 0.30642334
000010 80 14 ef 3a d4 d4 8b 3d 1d 28 2f bf c8 7a 0f 3d
       0.0018240362 0.06827703 -0.68420583 0.035029203
000020 84 83 e8 bd 84 f2 3c bd 7a 07 95 c0 41 2f 89 3e
       -0.113532096 -0.04612972 -4.6571627 0.26793864
000030 01 91 a0 c0 08 58 9a bd d4 b7 da bf fa 50 e5 bd
       -5.0177007 -0.07536322 -1.708735 -0.11197086
000040 3a 05 15 be 36 9b 9b 3e 3a e8 3f 3e 61 54 9a 3e
       -0.14552775 0.30391854 0.18740931 0.301425
000050 24 5c e5 3c a1 5c 59 3c 34 ab 0a bb 86 68 1f bf
       0.027998038 0.013266713 -0.0021159174 -0.62268865
000060 79 3d 16 c1 d0 97 04 bd b5 67 b7 3e e8 02 43 bd
       -9.390008 -0.032371342 0.3582131 -0.047610193
000070 b0 39 c3 3d b8 04 e5 3d 9a 11 47 3e 28 47 cd bc
       0.095324874 0.11182541 0.19440308 -0.025058344
000080 de f7 26 3e c9 fc 5b be 58 f4 c1 3d 3d 44 0e 3d
       0.16305491 -0.21483149 0.09470433 0.034733046
000090 a2 96 87 bd 18 a8 fc bd f6 ea cf bd 40 d5 59 3e
       -0.06620528 -0.12336749 -0.10152237 0.21272755
0000a0 6c d0 75 3d d6 6c d7 3d 56 1c 86 3d 71 37 6b c0
       0.06001322 0.10518806 0.065483734 -3.6752589
0000b0 e5 d8 04 3f 86 b0 c2 bd 16 b6 e9 bd 02 73 ef bd
       0.51893455 -0.095063254 -0.11411683 -0.11691858
0000c0 e4 97 51 3d f1 69 97 c0 90 be 06 3f 50 54 93 bd
       0.051170245 -4.7316823 0.52634525 -0.07193816
0000d0 3a a1 f8 3f 2e a9 fa 3f 40 46 a7 bd b9 df 33 bf
       1.9424202 1.958288 -0.08167696 -0.7026325
0000e0 13 3d 9e bf 79 a4 17 40 1c 5f df 3f 10 cb bb bd
       -1.2362388 2.3694136 1.74509 -0.091695905
0000f0 68 ac b4 bc d0 30 78 bd 60 a4 1c bd fc b5 f3 bd
       -0.022054866 -0.060593426 -0.038242698 -0.11899945
000100 91 6f ed 3d cb 57 d6 3d 0b cf 7e 3d 93 3a e2 be
       0.11593545 0.10465964 0.06220917 -0.44185314
000110 10 e5 b6 3d 79 c5 43 bc c6 22 87 bd 80 0c 72 bd
       0.08930409 -0.011948937 -0.065984294 -0.059093952
000120 c8 fc 3d 3d d2 69 f0 3d 05 ed 8e c0 d2 bc 5d 3e
       0.04638365 0.117389336 -4.466433 0.2165406
000130 e1 c3 9b c0 8c c1 d5 bd ed f3 81 bf c2 22 fe bd
       -4.867661 -0.10437307 -1.0152565 -0.12408973
000140 6e f6 29 3e 89 50 97 be 3e f2 12 3e 93 0f 84 3d
       0.16597912 -0.2955363 0.1435022 0.06448283
000150 78 13 cb 3b ab a8 a5 bc f7 0c 61 3e f8 69 a7 be
       0.006197389 -0.020222029 0.21977602 -0.32698035
000160 7e 28 9e bf ea 75 99 bd 31 bc 9a bd 68 03 7c bd
       -1.2356107 -0.074931934 -0.07555426 -0.061526686
000170 b6 06 1e 3d cd 08 00 3e 0f 80 6d 3d c8 0c d2 3d
       0.03858062 0.12503357 0.057983454 0.10256344
000180 dc c9 3c 3e 48 1d 03 3b 00 3b 69 bc 2f f8 88 bd
       0.18436378 0.0020006467 -0.014235258 -0.06687962
000190 8e d4 63 3d fe 1f f9 bd 04 4a 3e 3d 3c ed 40 bd
       0.05562263 -0.12164305 0.046457306 -0.047101244
0001a0 96 93 a4 bd a0 ca 1f bc 70 80 2a bd 1c 28 32 3e
       -0.08035962 -0.009752899 -0.041626394 0.17398113
0001b0 04 12 03 bf 00 34 d9 bc 3d df 1f bf 0c 26 75 bd
       -0.51199365 -0.026514053 -0.6245001 -0.059850737
0001c0 fe 56 d0 bd 06 b5 07 c0 5e bb fa bd 64 ab 07 3d
       -0.101728424 -2.1204238 -0.12242769 0.033122435
0001d0 de 97 94 3f 46 b9 db 3f 3e ab ee 3d c9 92 e9 bd
       1.1608846 1.7165916 0.116537556 -0.1140495
0001e0 11 d1 5a bf fc cd 80 3f 0e 4c 97 3f dc b2 06 3d
       -0.8547526 1.0062861 1.1820085 0.032885417
0001f0 f4 a0 ab 3d 20 63 fc 3d 10 e8 9c bc 28 89 d4 3c
       0.08380309 0.12323594 -0.019153625 0.025944307
000200 c3 08 20 bd bd 7c 3c 3e 36 66 c7 3d bb 55 e3 be
       -0.039070856 0.18406959 0.09736292 -0.44401345
000210 76 fe a1 bd 56 c2 5b bc cb a0 81 be 04 a4 fc bd
       -0.07909863 -0.0134130325 -0.25317988 -0.12335971
000220 22 8a c5 bd 88 3b fd bc 8d 33 92 c0 da a2 81 3e
       -0.09645487 -0.030912176 -4.568793 0.25319558
000230 46 b5 a4 c0 8c 5e cd bd ad 4e 85 bf 62 6c be bd
       -5.147128 -0.10027799 -1.0414635 -0.09298016
000240 03 63 a0 3d af 0e ac be 12 04 f5 bc 72 70 b2 3d
       0.07831385 -0.33604953 -0.029909167 0.087128535
000250 6b ec d9 3d 49 ca 8b bd 13 4e c2 3d e0 3f a3 be
       0.10640796 -0.06825692 0.09487548 -0.3188467
000260 2a a1 aa bf 04 14 89 bd 1b 76 69 3d b4 4d 77 bd
       -1.3330433 -0.06693271 0.0569974 -0.060376838
000270 37 f8 1b 3c b7 29 4f 3e f0 3e 5a 3e d0 43 8c 3d
       0.009519628 0.20230757 0.21313071 0.06848872
000280 e0 a0 35 3e b3 6b b5 3d 02 d3 fd bd ae 55 b0 bb
       0.1773715 0.088584326 -0.12393762 -0.0053813076
000290 4a a6 80 3e 90 49 3d bc 00 db 96 bd e4 93 12 3e
       0.25126868 -0.011553183 -0.0736599 0.14314228
0002a0 94 80 3f bd 90 c0 91 bd 50 cc e6 bd 1b bb 58 3e
       -0.04675348 -0.071168065 -0.11269438 0.21165125
0002b0 0a 7f f1 be f0 ac e2 3c 17 6d 0e bf ae 25 c2 bd
       -0.47167236 0.027670354 -0.5563521 -0.09479843
0002c0 3c 13 ef bd f9 5e 13 c0 3f b5 1f 3d 1e b1 93 3d
       -0.116735905 -2.3026717 0.03899121 0.07211517
0002d0 8a 52 94 3f c9 74 d8 3f 10 b8 bc bd 3e 06 7c be
       1.1587689 1.691064 -0.09214795 -0.24611756
0002e0 93 42 3f bf 59 fd 81 3f 9f ef 97 3f 00 09 eb bd
       -0.7471096 1.015544 1.1870002 -0.11476326
0002f0 5e 2a ab 3d 06 8e b4 bd 2c ba 3f 3d 88 a3 d8 3d
       0.0835769 -0.08816151 0.046808407 0.10578066
000300 6a 31 d1 bb 72 32 d8 3d df fb ea bd a0 6c 65 bd
       -0.0063840644 0.10556497 -0.11473822 -0.056011796
000310 10 50 95 3d 5f d9 10 bd f4 8d 06 bd b8 65 55 bd
       0.07290661 -0.03536355 -0.03285022 -0.05209896
000320 5e 76 b0 3d 3c 23 7b 3d 94 58 01 3d 82 d7 a0 bd
       0.08616327 0.0613129 0.031578615 -0.07853605
000330 83 a5 c4 bd 50 83 5d 3c f1 a4 ea 3c 80 65 6c bd
       -0.09601881 0.013520077 0.028643103 -0.057713985
000340 e6 39 2f bd 03 0d 9c 3d 07 80 eb 3a 4a 96 29 bb
       -0.042779826 0.07619669 0.0017967232 -0.0025876933
000350 13 a1 1f bd c7 8c f6 bd 98 9e 00 be ed bc 7d bd
       -0.03897197 -0.1203857 -0.12560499 -0.06194775
000360 25 ea 61 bd f4 83 1f 3d 7d dd 36 bd 44 4e 48 bd
       -0.05515494 0.0389442 -0.04464482 -0.048902765
000370 94 55 e3 3d e8 36 11 3d 11 23 a5 3d a0 dd 77 bd
       0.11100307 0.035452753 0.08063329 -0.060514092
000380 6b ba 72 bd 95 5e 1b 3d 02 91 aa bd ee 04 93 bd
       -0.059259813 0.037931997 -0.08328439 -0.07178675
000390 cc 5b 67 bc fc 44 3b bd 96 e9 bf bd f3 20 87 3d
       -0.014121007 -0.045720086 -0.09370725 0.065980814
0003a0 9e dd cd 3d e0 1d a6 3c c0 4a b2 bc 95 d7 db bd
       0.10052036 0.020277917 -0.02176416 -0.107344784
0003b0 40 76 5c bd 0c 59 02 3d b6 56 52 3d 98 73 81 bc
       -0.05382371 0.031823203 0.051352225 -0.01580219
0003c0 b0 6b 4a bd 5d 48 9f 3d f0 db dc bd ee cb a1 3d
       -0.049419105 0.07777474 -0.10784137 0.079002246
0003d0 22 36 69 bd 56 26 d7 bb d0 5b ca bc 96 a4 fd 3b
       -0.05693639 -0.0065658493 -0.024701983 0.0077405674
0003e0 8f b5 3c bd e2 cf a8 3d 44 2e 40 bc 5e d5 c7 3d
       -0.046071585 0.082427755 -0.011729781 0.097574934
0003f0 96 23 f6 3d 18 71 79 bd 1c c1 ba bd aa 63 cd 3d
       0.12018506 -0.06089887 -0.09118864 0.10028775

mods.1.bias f4 [64]
000000 96 dd 6f 3e ed 9d ee 3d 01 bb d8 3c 84 94 96 3d
       0.23424372 0.11651216 0.026456358 0.07352546
000010 79 d2 3e 3b e3 eb 19 bd a0 56 c5 3c ee 3e 17 bd
       0.002911715 -0.037578475 0.024089158 -0.03692525
000020 f1 99 b4 b9 a0 5e 5a bc fc b6 ef bd 6a fb 87 bd
       -0.0003444697 -0.013328224 -0.117048234 -0.0663975
000030 50 0f 24 3e 5d a2 80 3b 45 73 4a 3d 9c c7 60 3d
       0.16021466 0.003925605 0.049426336 0.054877862
000040 e2 a1 10 bc 02 b9 ca 3d 90 10 4b bc 9c 6c 3a bd
       -0.008827658 0.09898569 -0.0123940855 -0.045513734
000050 61 0e 7b 3d 3a a9 28 bd b4 26 f9 bc e6 37 4a 3c
       0.06129301 -0.041177012 -0.030413963 0.012342429
000060 1c 30 e6 3b 42 54 8b 3d b0 9f da bd 38 9b 13 bd
       0.007024778 0.0680318 -0.10674989 -0.0360367
000070 48 31 57 bd 52 aa 2f 3e 57 69 37 3d ba 2e 00 be
       -0.052537233 0.17154816 0.044778194 -0.12517825
000080 e0 6e 46 3d 24 ed 99 bc b2 43 e0 3d 9a 1d 9d 3d
       0.048445582 -0.018789835 0.10950412 0.07671662
000090 13 ee e3 bd c2 fe 18 3e e0 25 b7 bc ec ad 0a bd
       -0.111293934 0.14940932 -0.022356927 -0.03385727
0000a0 65 a2 c2 3d 90 24 f4 3d 5c 56 e7 3c 91 03 b6 bd
       0.095036305 0.11921036 0.028239422 -0.08887399
0000b0 15 3e 26 3e f4 46 27 3e ce 0d 4d bd 12 c1 89 bd
       0.1623462 0.1633566 -0.050061993 -0.06726278
0000c0 e2 0d cc bd be 50 8d bd be 6c c6 bd 82 c0 d7 3d
       -0.099635854 -0.06900166 -0.0968871 0.10534765
0000d0 9c 8e 4c 3d fd 65 dc 3d 91 0a 08 3e 00 17 f2 3a
       0.04994069 0.1076164 0.13285281 0.0018469989
0000e0 28 e7 70 3d 8a 53 92 3d 70 ce dc bd 3a f4 07 3e
       0.058814198 0.0714484 -0.10781562 0.13276759
0000f0 8f 37 28 bd ac 12 1f 3e 49 61 94 bc 79 14 2f 3c
       -0.04106861 0.15534467 -0.018112795 0.010686033

mods.2.weight f4 [1, 64]
000000 27 68 0d 40 2c 28 6d 40 78 fe 87 40 b8 db a8 bd
       2.209482 3.705577 4.249813 -0.08245033
000010 6f 9a d0 3c 86 2b 83 3d d0 50 85 bd 2e 19 5c c0
       0.025464265 0.06404786 -0.065095544 -3.4390368
000020 a3 03 cc bf 5e 2e fb c0 10 1a 81 bc 40 21 19 3c
       -1.593861 -7.84941 -0.015759498 0.009346306
000030 7d db 33 40 69 3a 60 c0 95 a4 63 40 88 b7 62 40
       2.8102715 -3.503565 3.5569203 3.5424519
000040 e8 75 df bf 08 57 bf bf e6 82 96 bd 74 a0 34 bd
       -1.7457857 -1.4948435 -0.07349186 -0.044098333
000050 7b 98 12 c0 e4 35 79 40 99 8d df bd cd 01 46 3d
       -2.2905567 3.8939142 -0.109156795 0.04834156
000060 ca d0 35 40 0a 72 be bd 68 19 87 bd 64 46 ca bd
       2.8408685 -0.09299095 -0.06596643 -0.09876707
000070 44 a3 08 3d 1d a6 83 40 93 99 e8 bf 9a 98 89 3d
       0.033358827 4.1140275 -1.8171867 0.067185596
000080 e8 73 54 3d 04 d2 93 bf 78 d4 a0 bb 31 a7 f3 bf
       0.05186835 -1.1548467 -0.0049081407 -1.9035398
000090 bd 1c 99 bf 48 a6 55 40 90 48 5c bc 3d 23 a6 bd
       -1.1961895 3.338274 -0.013445035 -0.0811219
0000a0 ca cb 82 40 17 ab 04 c0 81 48 ab bf 42 6b 5b 40
       4.0873766 -2.0729425 -1.3381501 3.4284215
0000b0 a6 54 1d 40 cd 08 47 40 d4 de 10 bd 77 b0 a1 3c
       2.4582915 3.1099122 -0.035368755 0.019737465
0000c0 c6 d3 e0 bd 10 40 c7 bc ee b3 15 bc a4 24 30 40
       -0.109778926 -0.02432254 -0.009137137 2.7522364
0000d0 5a bb a7 bd d2 e6 91 3c 4e 64 41 40 4e 83 c7 3d
       -0.08190031 0.017810259 3.021747 0.09741841
0000e0 07 08 bc bf 1a e2 e9 3d ce de f1 bd 1c 85 47 c0
       -1.468995 0.114200786 -0.11810075 -3.1174994
0000f0 9e 61 63 40 cd 0e 6f 40 b8 6b 43 40 49 b5 de bf
       3.552833 3.7352784 3.0534496 -1.7399074
